network_14.pth (torch_old, 859342 bytes, 434 tensors)

state_embedding.pokemon_embedding.embedding.weight f4 [893, 32]
0	0xbdc39e95	-0.095517315
1	0x3dcb411e	0.099245295
2	0xbe1ab3be	-0.15107629
3	0xbd5fa4f6	-0.05460068
4	0xbd27b875	-0.040947396
5	0xbcdf2c28	-0.027242735
6	0x36c46ad0	5.85369e-06
7	0xbe26ddc7	-0.16295539
8	0x3ca9007f	0.02063012
9	0x370b114e	8.289075e-06
10	0xbb1cce14	-0.0023926543
11	0xb8173ec4	-3.605966e-05
12	0x3d007eaa	0.031370796
13	0xbd2d99df	-0.04238307
14	0xbc5162dd	-0.0127799185
15	0x3c9da3b1	0.019243093
16	0x3dc80974	0.09767428
17	0x3de8d1d0	0.113681436
18	0xbd9c032b	-0.07617792
19	0xbdfaff1d	-0.1225569
20	0xbd941291	-0.07230104
21	0xbd6e4482	-0.058170803
22	0xbdf855d5	-0.12125746
23	0xb7dcecdc	-2.633634e-05
24	0x3a7efdb1	0.0009727134
25	0x3c683069	0.014171698
26	0xb74e344f	-1.2290736e-05
27	0xbcd2be4b	-0.025725504
28	0x3da678cb	0.08128508
29	0x3e0784b0	0.1323421
30	0xbcafb62d	-0.021449173
31	0x3e045a3c	0.12925047
32	0x3e358234	0.1772545
33	0x3d2e1760	0.04250276
34	0x3edaad88	0.4271052
35	0xbe830e0c	-0.25596654
36	0x3e6cedc3	0.23137574
37	0xbe8ae245	-0.27125755
38	0x3dd91c0e	0.10601054
39	0x3f246d9e	0.6422976
40	0x38133bd1	3.510324e-05
41	0xbf4bafcd	-0.79565126
42	0xbe8bb47e	-0.27286142
43	0xba33e4d0	-0.0006862404
44	0x3ece3b59	0.40279654
45	0x3dbba570	0.09162414
46	0xbe0f4842	-0.13992408
47	0x3f3f0c1b	0.74627846
48	0x3f41c87f	0.7569656
49	0xbed43215	-0.4144446
50	0xbec506a3	-0.38481626
51	0x3e78847a	0.24269286
52	0x3ec0aeeb	0.37633452
53	0x3ca7a2da	0.020463396
54	0x3f421db1	0.75826555
55	0xbe06daed	-0.13169451
56	0xbdfdc0a3	-0.12390258
57	0xbeaddb6a	-0.33956462
58	0x3f3f560a	0.7474066
59	0xbf00a031	-0.5024443
60	0x3f1417a3	0.57848567
61	0xbf3be623	-0.73398036
62	0x3f2e30a0	0.68042946
63	0x3e3f260b	0.18666856
64	0xbf0cee06	-0.55050695
65	0xbe9244fd	-0.2856826
66	0x3d94291d	0.07234404
67	0x3f35d2ee	0.7102498
68	0xbcad9fba	-0.021194328
69	0xbf58dde4	-0.8471358
70	0xbf5848d5	-0.8448613
71	0xbefa77ec	-0.48919618
72	0x3ed10f47	0.40831968
73	0x3f1a2b07	0.60221905
74	0xbf33e459	-0.70270306
75	0x3f1e237f	0.6177291
76	0x3e990df5	0.2989346
77	0x3f35c3b6	0.71001756
78	0xbf40be34	-0.75290227
79	0xbf2af6ea	-0.6678301
80	0xbf46585e	-0.7747859
81	0xbef461bd	-0.47730818
82	0x3e602680	0.21889687
83	0x3e4ebc07	0.20188914
84	0xbe0fe3e2	-0.14051774
85	0xbf01f5e1	-0.50765806
86	0x3ea5ffa3	0.32421598
87	0x3df43208	0.11923605
88	0x3e04a53b	0.12953655
89	0xbe6ae465	-0.22938688
90	0x3f46187c	0.7738111
91	0x3d3f8a02	0.046762474
92	0xbf3f8011	-0.7480479
93	0xbeb40d01	-0.3516617
94	0x3b314e6b	0.0027054797
95	0x3ee2229a	0.44167024
96	0xb5037abe	-4.8979916e-07
97	0xbceb06c3	-0.028689748
98	0x3855930a	5.0920098e-05
99	0xbf17db4c	-0.59318995
100	0x3f2c88f1	0.67396456
101	0xbee3e311	-0.44509175
102	0x3e3284d0	0.17433476
103	0x3f0e2f86	0.55541265
104	0xbf2d69b9	-0.67739445
105	0xb745af4e	-1.1782931e-05
106	0xbda6b524	-0.081400186
107	0xb9fe73aa	-0.00048532832
108	0x3e6da5b6	0.23207745
109	0xbefbacd4	-0.49155295
110	0xb8102e75	-3.4375542e-05
111	0xbede219e	-0.43385023
112	0x3e97839f	0.29592606
113	0xbe8f25bd	-0.2795848
114	0x3e89012f	0.26758716
115	0x3db43ee0	0.08801055
116	0x3ef290de	0.4737615
117	0xbee9e24e	-0.4568047
118	0xbf4f02c1	-0.8086358
119	0x3e9a2a7a	0.30110532
120	0xbf58c8e4	-0.84681535
121	0xb8105877	-3.4414665e-05
122	0xbf0134b0	-0.5047102
123	0xbf0bd3b1	-0.5461989
124	0xbda94e03	-0.08266833
125	0xbf55668f	-0.83359617
126	0x3d039263	0.032122027
127	0xbd3ceab7	-0.04612228
128	0xbe130654	-0.14357883
129	0xbea64cd0	-0.32480478
130	0x3e3ac5e4	0.18239552
131	0xbcc14ef5	-0.02359722
132	0xbc853b6b	-0.016263684
133	0x3da99a57	0.08281391
134	0x3e5df7e6	0.21676597
135	0xbe2474d7	-0.16060196
136	0x3f16e682	0.58945477
137	0x3f0b0bb6	0.54314744
138	0xbc74fa03	-0.014952186
139	0xbf2aafa5	-0.6667426
140	0x3f31f5f7	0.6951594
141	0x3e974bd6	0.29550046
142	0xbf54e3f7	-0.83160347
143	0xbe04bf6f	-0.12963651
144	0x3f4cd1f1	0.80007845
145	0x3eb2e08a	0.34936935
146	0x3f0fda2a	0.56192267
147	0xbebd8a2a	-0.37019473
148	0x3df473c2	0.119361416
149	0xbed0061c	-0.4062966
150	0xbe499266	-0.19684753
151	0x3eb3650e	0.35038036
152	0xbe063207	-0.13105021
153	0xbf4b0b0f	-0.7931375
154	0xbf2b77d2	-0.66979706
155	0x3ae650c8	0.0017571682
156	0xbe86e381	-0.26345447
157	0x3ea17a8c	0.31538808
158	0xbe90db79	-0.28292444
159	0x3d3709f9	0.044687245
160	0xbdcdf192	-0.100558415
161	0xbc72eb5d	-0.014826623
162	0xb8c9cc06	-9.622429e-05
163	0xbd3559ae	-0.04427498
164	0xbd43ad1f	-0.047772523
165	0xb932294c	-0.00016990787
166	0x3ccd747f	0.025079964
167	0x3e0cce7a	0.1375064
168	0x3ae6b98a	0.0017602902
169	0x3bf54202	0.0074846754
170	0xbd0c8053	-0.034302067
171	0xbe0fe64b	-0.14052694
172	0x3e227910	0.15866494
173	0x3d947d52	0.072504655
174	0xbd89b6a8	-0.06724292
175	0x38a716a5	7.9673984e-05
176	0xb87b1c10	-5.98692e-05
177	0x3b9b7497	0.004744123
178	0xbddf7624	-0.109112054
179	0xbe0bb2d8	-0.13642442
180	0x3dc58036	0.09643595
181	0xbde4bc5b	-0.111687385
182	0xb8888336	-6.509425e-05
183	0x379ff734	1.906939e-05
184	0xbe341729	-0.1758696
185	0xbd8313d7	-0.064002685
186	0xbdca9dc9	-0.098933764
187	0x3d353c03	0.044246685
188	0x3b0168bd	0.0019746267
189	0x3da9a40e	0.08283244
190	0x3ab1db49	0.001356938
191	0xb87fc555	-6.0980517e-05
192	0xbf4079a8	-0.7518563
193	0xbe6d4b8e	-0.23173353
194	0xbe101cbb	-0.1407346
195	0x3eab1f1d	0.33422175
196	0xbf190c8b	-0.59784764
197	0x3ca72284	0.0204022
198	0xbf0cd75f	-0.5501613
199	0xbf1e005e	-0.6171931
200	0xbede02b4	-0.43361437
201	0xbf2723ee	-0.652892
202	0xbf2229d6	-0.63345087
203	0xb5841cae	-9.843113e-07
204	0xbf412b79	-0.7545696
205	0xbe7a7d9d	-0.2446198
206	0xbf160baf	-0.5861158
207	0x3f4770bc	0.77906394
208	0x3f1f20f1	0.6215964
209	0x3f06ded0	0.52683735
210	0xbeb781af	-0.35841128
211	0x3f350662	0.70712864
212	0x3e4f92a0	0.20270777
213	0xbea4d1e4	-0.32191384
214	0x3f3ebd0e	0.74507225
215	0xbf0b4617	-0.54403824
216	0xbf2ec14d	-0.68263704
217	0x3f2f0a61	0.6837521
218	0x3f2b1455	0.668279
219	0xbe4ef0b4	-0.20209008
220	0xbe077684	-0.13228804
221	0x3ebe3a21	0.37153724
222	0xbf519b88	-0.81877947
223	0x3f3daa37	0.7408785
224	0x3f565f06	0.83738744
225	0x3f332882	0.69983685
226	0xbd7634b4	-0.060108855
227	0x3e9eb06b	0.3099397
228	0xbee055e1	-0.4381552
229	0xbeb0c07e	-0.3452186
230	0xbcf104dd	-0.029421264
231	0x3dd06c0d	0.10176859
232	0xbf568970	-0.83803463
233	0x390deba4	0.00013534591
234	0xbf122e61	-0.5710202
235	0xbed75636	-0.4205796
236	0x3e2aa4e5	0.16664465
237	0x3eb5d6dd	0.3551549
238	0xbd10d13d	-0.035355795
239	0xbb4bf8ec	-0.003112371
240	0x3f3cbd78	0.73726606
241	0x3e905650	0.2819085
242	0xbe9a6e8c	-0.30162466
243	0x3f1a73f8	0.60333204
244	0xbf332cf9	-0.699905
245	0x3e91b48a	0.28458053
246	0x3e948285	0.29005828
247	0xbf320231	-0.69534594
248	0xb661cc90	-3.3646684e-06
249	0xbf35dc26	-0.71039045
250	0xbf25ea9f	-0.6481113
251	0x3f447372	0.76738656
252	0x3e597cdc	0.21239036
253	0x3e1b67d2	0.15176323
254	0x3f35517b	0.70827454
255	0x3deef083	0.11666968

state_embedding.type_embedding.embedding.weight f4 [20, 8]
0	0x3d45a606	0.048254035
1	0xbea83baf	-0.32858035
2	0x3c022d52	0.0079453755
3	0x3eb6024a	0.3554862
4	0xbeaa474a	-0.33257514
5	0x3e796a1e	0.24356887
6	0x3e12fdc7	0.14354621
7	0xbe53b395	-0.20673974
8	0x3f425733	0.75914305
9	0x3e15fa3c	0.14646238
10	0x3e2a3543	0.1662188
11	0xbec92dbc	-0.39292705
12	0x3f0fa933	0.5611755
13	0xbf251923	-0.6449148
14	0x3e0b2673	0.13588886
15	0x3e0e1255	0.1387418
16	0x3f59fd98	0.8515258
17	0x3f42adb8	0.76046324
18	0x3f5971c9	0.8493925
19	0xbef52980	-0.47883224
20	0xbe292274	-0.16517049
21	0xbf077849	-0.52917916
22	0xbf34511a	-0.7043625
23	0xbf55c5d2	-0.83504975
24	0x3f185d9b	0.5951783
25	0x3e7aa16e	0.24475643
26	0x3e66074b	0.2246372
27	0x3f42fd88	0.7616811
28	0xbf1b1f02	-0.6059419
29	0xbf05a42d	-0.5220364
30	0x3e25aa68	0.16178286
31	0x3d2a4fac	0.041579887
32	0x3dd4bf55	0.10388056
33	0xbe250881	-0.16116525
34	0xbe77530d	-0.24152775
35	0x3eec1110	0.46106768
36	0x3e0902b6	0.1337994
37	0x3e003ef0	0.12524009
38	0xbf429c8e	-0.76020133
39	0xbf3283ff	-0.6973266
40	0xbcf23826	-0.02956779
41	0x3d106864	0.035255805
42	0x3ed5a0d4	0.41724265
43	0x379783b4	1.8061932e-05
44	0x3ecf280b	0.40460238
45	0xbe9781fb	-0.29591355
46	0x3805a96c	3.1867457e-05
47	0xbe8947bd	-0.26812544
48	0xbf4821e0	-0.7817669
49	0x3f597179	0.8493877
50	0x3f5391e1	0.8264447
51	0xbd83f447	-0.064430766
52	0x3dfc411a	0.12317105
53	0x3f2e5a6d	0.6810673
54	0x3f12f690	0.57407475
55	0xbf31cbbb	-0.69451493
56	0x3d52fe1c	0.05151187
57	0xbefa7d03	-0.489235
58	0xbe0decdc	-0.13859886
59	0xbcdf253d	-0.027239436
60	0xbe37381e	-0.17892501
61	0x3d0d0395	0.034427244
62	0x3f4c4616	0.7979444
63	0x3d18d8cd	0.037316132
64	0x3e10aa70	0.14127517
65	0xbe8fd057	-0.28088638
66	0xbed5ebd6	-0.4178149
67	0x3e584223	0.21118979
68	0xbe79fab6	-0.24412045
69	0xbe6237b6	-0.22091565
70	0x3c77c6a7	0.015123046
71	0x3d7b42b0	0.061342895
72	0xbdafae6e	-0.08578192
73	0xbeec840f	-0.46194503
74	0xbacb1207	-0.0015493043
75	0xbb0b004f	-0.00212099
76	0x3dfe5b6f	0.12419783
77	0xbecd229a	-0.4006546
78	0x3a534092	0.0008058633
79	0xbea76be9	-0.32699516
80	0x3ede5f80	0.43432236
81	0x3f58bf0c	0.84666514
82	0xbf17daa2	-0.5931798
83	0xbf3d9711	-0.74058634
84	0xbcf1e36f	-0.029527394
85	0x3e25af2b	0.16180103
86	0x3b2f1259	0.0026713817
87	0x3f270d76	0.65254915
88	0x3ee0125f	0.43764016
89	0x3e52159d	0.20516057
90	0x38d8a3ab	0.00010330168
91	0x3e8c34fb	0.2738417
92	0x35808b33	9.577255e-07
93	0x37fab319	2.9885721e-05
94	0x3edf288b	0.4358562
95	0x3dae6c15	0.08516709
96	0xbf0c4736	-0.5479616
97	0x3dfc432c	0.123174995
98	0x3ef9c553	0.4878336
99	0x3f2a4a4d	0.66519624
100	0x3f274369	0.65337235
101	0xbda5a0af	-0.080872886
102	0x3e946c7c	0.28989017
103	0xbf421a25	-0.75821143
104	0x3ed06aec	0.40706575
105	0xbe60c53d	-0.2195024
106	0xbd9b04db	-0.075692855
107	0x3f2e9f23	0.68211573
108	0x3f186fee	0.5954579
109	0x3f557ccc	0.8339355
110	0x3d2eb46c	0.042652532
111	0x3e6adaae	0.22934982
112	0x3e7d3918	0.24728811
113	0xbc5f72cb	-0.013638209
114	0xbe26ff0b	-0.16308229
115	0xbe17658c	-0.14784831
116	0xbb4a1073	-0.0030832558
117	0xbee0b988	-0.4389155
118	0xbec11923	-0.3771449
119	0x3e0ef58c	0.13960856
120	0xbda68985	-0.081316985
121	0x3eed1634	0.46306002
122	0x3dc5a388	0.09650332
123	0x3e2b004b	0.1669933
124	0xbe4c8498	-0.19972456
125	0xb8a081e5	-7.653589e-05
126	0x3c0658ac	0.008199852
127	0xbcc7f867	-0.02441044
128	0xbea62bee	-0.3245539
129	0x3bacaa27	0.005269307
130	0xbe803657	-0.25041458
131	0x3eae3d7f	0.34031293
132	0x3c98432b	0.018586716
133	0x3d601d41	0.0547154
134	0xbee30ea8	-0.4434712
135	0x3bf3945b	0.007433457
136	0xbe6884c8	-0.22706902
137	0x3ecaeb8d	0.39632836
138	0xbcd9e3d4	-0.026597895
139	0x3c815dae	0.01579174
140	0x3f4f490d	0.8097084
141	0xbf54268e	-0.8287133
142	0x3d4f1150	0.05055362
143	0xbf3a3f2b	-0.72752637
144	0xbed70cad	-0.42001858
145	0x3ebf1647	0.37321684
146	0x368b3182	4.1482863e-06
147	0x3f052dda	0.5202309
148	0x3f3930ba	0.72339976
149	0xbdc470df	-0.09591841
150	0xbce0a57a	-0.027422655
151	0xb831b203	-4.2365875e-05
152	0xbe0d4fff	-0.13800047
153	0x3e8bd849	0.2731345
154	0x3ec6a3da	0.38796884
155	0x3d80e90c	0.0629445
156	0x3ed22d1f	0.4105005
157	0x3973dd04	0.0002325662
158	0xbca6f1c7	-0.02037896
159	0xbe711a8f	-0.23545288

state_embedding.move_embedding.embedding.weight f4 [1003, 8]
0	0xbdb98b42	-0.090597644
1	0xb76df234	-1.4182693e-05
2	0x3e6b1982	0.22958949
3	0xbeaa80d2	-0.33301407
4	0x3e2e0e54	0.16997653
5	0xbeb42655	-0.35185495
6	0xbe7e5da9	-0.24840416
7	0xbe507fe3	-0.20361285
8	0x3e0d58f7	0.13803469
9	0x3e90e7ef	0.2830195
10	0x3ed6600e	0.4187016
11	0x3db92702	0.09040643
12	0xbe8ad45a	-0.27115136
13	0xbebc93eb	-0.36831602
14	0xbde9fa2f	-0.11424672
15	0x3e504ef4	0.20342618
16	0xbd3c96d4	-0.04604228
17	0x3efdf0fd	0.49597922
18	0x3c8f6abf	0.017506955
19	0xbec74dbb	-0.3892649
20	0x3ea968ac	0.3308767
21	0xbe2b9d78	-0.16759288
22	0xbf3f14b7	-0.74640983
23	0x3f29a177	0.66262
24	0xbf01aa19	-0.50650173
25	0xbe329a56	-0.17441687
26	0x3f3c078c	0.73449016
27	0xbf167ea9	-0.5878702
28	0x3f4e97e9	0.80700547
29	0xbd35f597	-0.044423666
30	0x3efe8cbe	0.49716753
31	0xbcf9ea9f	-0.030507384
32	0xbec4847a	-0.38382322
33	0x3f1d089f	0.6134128
34	0x3f1b2b84	0.60613275
35	0x3f35274a	0.70763075
36	0x3f430c91	0.7619105
37	0xbe2f0c50	-0.1709454
38	0xbe32c990	-0.17459702
39	0xbf03b045	-0.5144084
40	0x3f55e391	0.83550364
41	0xbd988aa1	-0.07448316
42	0x3daaf9e4	0.08348444
43	0xbe812b24	-0.25228226
44	0x35cefb17	1.5421273e-06
45	0xb7cc874b	-2.4381696e-05
46	0xbe034fac	-0.12823361
47	0x3e0b6e56	0.13616309
48	0x3f411c14	0.7543347
49	0xbf2a607a	-0.6655346
50	0x3f371a63	0.7152464
51	0x388e02d9	6.771618e-05
52	0x3bd19f4d	0.006397164
53	0xbf154f19	-0.5832382
54	0x3e97455c	0.29545105
55	0xbf00832e	-0.50200164
56	0xbf19075e	-0.59776866
57	0xbf2b7355	-0.6697286
58	0xbf23814d	-0.6386917
59	0x3d897d0f	0.06713306
60	0x3f324b23	0.696459
61	0xbd776006	-0.06039431
62	0xbef54e31	-0.47911218
63	0x3ea9ab3b	0.3313845
64	0xbd870f4d	-0.06594715
65	0xbf2999a5	-0.6625007
66	0xbde923d7	-0.11383789
67	0xbdafc4b2	-0.085824385
68	0xbe462f5c	-0.19354004
69	0xb6d2138e	-6.260764e-06
70	0xbeab8d81	-0.33506396
71	0x3ef1cc86	0.47226351
72	0xbd10ca53	-0.0353492
73	0x3c9e80c6	0.019348513
74	0x3f0d74d5	0.55256397
75	0xbdc722f7	-0.09723466
76	0x3d4de9eb	0.05027191
77	0x3ee493c0	0.44643974
78	0xbece2d21	-0.40268806
79	0xbec678ce	-0.38764042
80	0xbddb27b7	-0.107009344
81	0xbcaa1254	-0.020760693
82	0xbf3ff6f6	-0.7498621
83	0xbf48b168	-0.783957
84	0x3f53d9af	0.82754034
85	0xbed3da2f	-0.41377398
86	0xbe114f4c	-0.14190406
87	0xbf05157b	-0.519859
88	0x3ede6844	0.43438923
89	0x3ed1b3fe	0.40957636
90	0xbe020f2f	-0.12701105
91	0xbe2b9c09	-0.16758741
92	0xbe5b3a3f	-0.21408938
93	0x3bb7399d	0.005591585
94	0x3f199fd2	0.6000949
95	0xb52ae054	-6.3656375e-07
96	0xbe76afc6	-0.2409049
97	0xbd8346dc	-0.0641
98	0xbf3b7ae2	-0.7323438
99	0xbf3f42fb	-0.7471158
100	0x3e32947b	0.17439453
101	0x3f18173d	0.5941046
102	0x3e9eebcc	0.31039274
103	0x3a5766f8	0.00082169427
104	0x3eb704ae	0.35745758
105	0x3efeb8b8	0.49750304
106	0x3f581bd9	0.8441749
107	0x3ea90f1a	0.33019334
108	0xbee3effc	-0.4451903
109	0xbf1c7484	-0.6111529
110	0xb564ea80	-8.527786e-07
111	0xbc5687e2	-0.01309392
112	0x3ef1ca0b	0.4722446
113	0x3ea44008	0.32080102
114	0x3ebec625	0.37260547
115	0x3f0ffe72	0.5624763
116	0x3cb64b63	0.022252744
117	0xbf4c5f37	-0.79832786
118	0xbea16964	-0.3152572
119	0xbe9f9a0e	-0.31172222
120	0x3ef495fb	0.47770676
121	0x3eb00d04	0.3438493
122	0xbf547d84	-0.8300402
123	0x3f402b98	0.7506652
124	0xbd8d89b6	-0.06911032
125	0xbf13ff61	-0.5781155
126	0x3f0e2894	0.5553067
127	0xbf15e07b	-0.58545655
128	0xbede20e5	-0.43384472
129	0xbe54ce52	-0.2078183
130	0x3e5f40e3	0.21802096
131	0x3d62f552	0.055409737
132	0x3e8184e0	0.25296688
133	0xb69a62d5	-4.601063e-06
134	0x3eae4866	0.3403961
135	0xbc292be1	-0.010325403
136	0x3e88d694	0.2672621
137	0xbe7118f2	-0.23544672
138	0xbd47a158	-0.048737854
139	0xbde2b563	-0.11069753
140	0xbf3fac7d	-0.7487257
141	0x3f3e13ef	0.74249166
142	0xbf1fcd0b	-0.62422246
143	0x3f5091bf	0.8147239
144	0x3e9612ac	0.2931112
145	0xbf244068	-0.64160776
146	0x3f5ab8bd	0.8543814
147	0x3ea2960f	0.3175511
148	0xbf4d9d59	-0.8031822
149	0xbe943cdd	-0.28952685
150	0x3f3fb2be	0.74882114
151	0xbd3d3848	-0.046196252
152	0xbf2b6c79	-0.6696239
153	0x3ed2059f	0.41019914
154	0x3c312516	0.010812065
155	0x3f4738c5	0.77821
156	0x3e95b671	0.29240754
157	0x384fe9fd	4.9570564e-05
158	0x3eff2c9c	0.49838722
159	0x3f2f73a9	0.6853586
160	0x3f1dac3a	0.6159092
161	0xbeacf3a8	-0.33779645
162	0x3dd012e9	0.10159857
163	0x3f0b0f54	0.54320264
164	0xbe736d27	-0.23772107
165	0xbe1f6392	-0.15565327
166	0x38effb10	0.00011443172
167	0x3d732ad0	0.059367
168	0x3f329167	0.69753116
169	0x3e6ff9b6	0.23435101
170	0x36e90df0	6.9455637e-06
171	0x3f3848a7	0.7198586
172	0x3ed0a7a5	0.40752903
173	0x3f2b3a04	0.668854
174	0x3e670832	0.2256172
175	0x3ef78f4d	0.48351517
176	0x3f475b8f	0.7787408
177	0x3eb58f03	0.35460672
178	0x3f141857	0.5784964
179	0xbd366010	-0.044525206
180	0xbd152440	-0.036411524
181	0x3ec514cf	0.38492438
182	0x3f19698f	0.59926695
183	0xbe4c2c6d	-0.19938822
184	0x3f30447d	0.68854505
185	0x3f214ab8	0.63004637
186	0xb8800fb4	-6.1064406e-05
187	0x3f509ad0	0.81486225
188	0x3dcd53b6	0.10025732
189	0xbccfeb5c	-0.025380783
190	0xbf243efd	-0.6415861
191	0xbeecd8c2	-0.46259123
192	0xbf38e399	-0.72222286
193	0x3ee488c3	0.4463559
194	0x3eadb2e5	0.33925548
195	0x3ec4c42a	0.3843091
196	0x3f330cd7	0.6994147
197	0xbf54e6c6	-0.8316463
198	0x3e20ed74	0.15715581
199	0xbf14970a	-0.5804297
200	0x3e1f6958	0.15567529
201	0x3f4de663	0.8042967
202	0x3f1a1fb5	0.6020463
203	0xb6db2d35	-6.5319714e-06
204	0xbf02272a	-0.5084101
205	0xbe74bc92	-0.23900059
206	0xbed87bc0	-0.42281914
207	0x3eeb625e	0.45973486
208	0xbede4039	-0.43408373
209	0xbf37bc56	-0.7177175
210	0xbcb908f9	-0.022587286
211	0xbdf4b2e0	-0.1194818
212	0x3d20a5c4	0.039220586
213	0x3efd5229	0.49476746
214	0x3e450007	0.19238292
215	0x3e8f27a2	0.27959925
216	0x3da65159	0.081209846
217	0xbecf940c	-0.40542638
218	0xbf429928	-0.7601495
219	0x3dc14bc5	0.0943828
220	0xbdaef64a	-0.0854307
221	0x3ed871eb	0.42274413
222	0xbf0c379f	-0.5477237
223	0xbee3a908	-0.44464898
224	0xbe2bdd6d	-0.16783686
225	0xbed36e41	-0.41295055
226	0xbf3c8c8c	-0.7365196
227	0xbf25feb3	-0.64841765
228	0xbef8c532	-0.48587948
229	0xb5af00a4	-1.3038702e-06
230	0x3f58cf31	0.8469115
231	0x3ebdaae4	0.37044442
232	0xbe47aa5c	-0.1949858
233	0x3e69fdaf	0.22850679
234	0xbebfc91c	-0.37458122
235	0xbee4921e	-0.4464273
236	0xbf1a0800	-0.6016846
237	0x3ee8627c	0.45387638
238	0x3f487bad	0.78313714
239	0x3ee1a513	0.44071254
240	0x3ed3d864	0.4137603
241	0xbd949209	-0.072544165
242	0x3f4aa655	0.7916005
243	0xb70f89f9	-8.5555885e-06
244	0xbf28df56	-0.65965784
245	0xbded76f6	-0.115949556
246	0xbe844a07	-0.25837728
247	0xbefc461a	-0.49272233
248	0xbe828b4d	-0.25496903
249	0x3cb4c668	0.022067264
250	0x3f595794	0.8489926
251	0xbf1024d7	-0.56306213
252	0xbe0fef12	-0.14056042
253	0x3f1312c3	0.57450503
254	0xb6258fbe	-2.4670585e-06
255	0x3ec6f367	0.38857576

state_embedding.move_type_embedding.embedding.weight f4 [20, 8]
0	0xbe5d6fd7	-0.21624695
1	0x3ededda4	0.43528473
2	0x3d996753	0.07490411
3	0x3868413e	5.5373872e-05
4	0x3e9ff00d	0.31237832
5	0x3eb36cfe	0.35044092
6	0x3c5554e1	0.013020725
7	0xbdb483f8	-0.088142335
8	0xbf002d19	-0.50068814
9	0xbebd2876	-0.36944932
10	0xbeca0fc4	-0.39465153
11	0xbb4c7c6e	-0.0031202096
12	0xbf29ca79	-0.66324574
13	0x3e1a4f69	0.15069355
14	0xbe1049d2	-0.1409066
15	0x3eac4866	0.33648986
16	0xbefaa379	-0.48952845
17	0xbf30c676	-0.6905283
18	0x36d1aa36	6.2485005e-06
19	0xbeb9c7c8	-0.36285233
20	0x3f1d4bff	0.61444086
21	0x3f440192	0.76564896
22	0xbf34dffc	-0.70654273
23	0x3d0d60cf	0.034516152
24	0x3f4024db	0.75056237
25	0x3e8ac08e	0.27100033
26	0x3f323809	0.6961675
27	0xbee37730	-0.4442687
28	0xbef67cef	-0.48142192
29	0xbedb1f9e	-0.4279756
30	0x3d0133a1	0.031543378
31	0x3ea61cec	0.3244394
32	0x3e1be9c0	0.15225887
33	0x3f2b9db3	0.67037505
34	0xbd211ee4	-0.0393361
35	0x3ec429f3	0.38313255
36	0x3eac5ae3	0.3366309
37	0x3ef8daf7	0.48604557
38	0x3f0701ce	0.5273713
39	0x366a9936	3.4957898e-06
40	0x3e1fc175	0.15601142
41	0x3e8d3283	0.275776
42	0x3e740235	0.23828967
43	0xbeac8c90	-0.3370099
44	0x3e73464b	0.23757283
45	0xbe8625c8	-0.262007
46	0xbdc4229a	-0.09576912
47	0x3d5e0dfb	0.05421255
48	0xbec9f289	-0.39442852
49	0xbecea3af	-0.40359256
50	0xb7e7187c	-2.7548747e-05
51	0xbd76c8ac	-0.06024997
52	0x3dcb3b55	0.09923426
53	0x3c66a725	0.014077936
54	0xbe948c39	-0.2901323
55	0xbe6baf86	-0.23016176
56	0xbddd34f5	-0.108011164
57	0xbe3233e8	-0.17402613
58	0x3e423788	0.18966496
59	0x3da3974a	0.079878405
60	0xb69b793d	-4.633474e-06
61	0x3ec6abd6	0.38802975
62	0x3f4833fc	0.7820432
63	0x3a4a5b74	0.0007719316
64	0x3798e36f	1.8225719e-05
65	0xbe4212ea	-0.18952528
66	0x3dd51c65	0.104058065
67	0xbeaf6f24	-0.3426448
68	0x3e11cf82	0.14239314
69	0xbebbdf94	-0.36694014
70	0x3eb86518	0.36014628
71	0xbd3abac8	-0.045588285
72	0xbbc459de	-0.0059921583
73	0x3c4d92f4	0.012547243
74	0x3ed937f0	0.4242549
75	0x3e0204ff	0.12697218
76	0x3e6b5a53	0.22983675
77	0xb8dc0cec	-0.000104928244
78	0xbe704ca9	-0.23466744
79	0x3ed85842	0.42254835
80	0x3f18c80a	0.59680235
81	0xbf0180c8	-0.5058713
82	0xbda6ac78	-0.081383646
83	0x3f55d04a	0.8352095
84	0xbf5129c5	-0.8170436
85	0xb6960d66	-4.471908e-06
86	0x3eddf389	0.43349865
87	0xbf4f2a5b	-0.80924004
88	0xbe655de8	-0.22399104
89	0xbe328b64	-0.17435986
90	0xbe0c16d3	-0.13680582
91	0xbe89fa9d	-0.26949015
92	0x3de8f071	0.113739856
93	0x3e2af4d9	0.16694964
94	0xbe93f5ad	-0.28898373
95	0xbea224e4	-0.3166877
96	0x3e1d8cf0	0.15385795
97	0xb7b4cf95	-2.1554335e-05
98	0xbe558214	-0.20850402
99	0x3dab4c57	0.0836417
100	0x3e932ec4	0.28746617
101	0x3ebd4f26	0.36974448
102	0x3eab29dd	0.33430377
103	0x3e2694dd	0.16267724
104	0xbeda6e85	-0.42662445
105	0xbc9e00ba	-0.019287456
106	0xbe4e66d8	-0.2015642
107	0xbdf47097	-0.11935537
108	0xbe774ad9	-0.24149646
109	0x3d15f2e5	0.036608595
110	0xbe29e51d	-0.16591306
111	0xbeafa454	-0.3430506
112	0xbdf78cf7	-0.12087434
113	0x3d1f4707	0.038886096
114	0x3e388388	0.18018925
115	0x3e39ab15	0.18131669
116	0xbd627650	-0.055288613
117	0xbea45788	-0.3209803
118	0xbea69eb1	-0.32542947
119	0x3ebc9739	0.36834124
120	0x3dfa95b3	0.12235584
121	0x3e778108	0.24170315
122	0xb8c9d0d5	-9.623325e-05
123	0xbdbc5c87	-0.09197336
124	0xbec109f4	-0.37702906
125	0xbe632018	-0.22180212
126	0xbec66e3e	-0.38755983
127	0x3e05ff7b	0.1308574
128	0xbef4784a	-0.47748023
129	0xb750de3e	-1.2449511e-05
130	0x3eb73422	0.35781962
131	0x3e16f7ae	0.1474292
132	0x3c4e3b12	0.012587326
133	0xbe82189f	-0.2540941
134	0xbddf96ec	-0.10917458
135	0x3e03dd31	0.12877347
136	0x3d892326	0.06696157
137	0x3f581f43	0.844227
138	0xbea78bb6	-0.32723778
139	0xbd0b16af	-0.03395718
140	0xbee98411	-0.4560857
141	0x3eb83cfc	0.35984027
142	0xbe157f0a	-0.14599243
143	0x3da2be45	0.07946447
144	0xb7ee8a14	-2.8436109e-05
145	0xbea7e072	-0.32788426
146	0x3e4eba5d	0.2018828
147	0xbc747772	-0.014921056
148	0x3f031ca7	0.51215595
149	0x38db1804	0.00010447207
150	0xbe992656	-0.2991206
151	0x3d5f9ad3	0.05459101
152	0x3b9bded9	0.00475679
153	0xbe710e1e	-0.23540542
154	0xbe55425e	-0.20826098
155	0x3edbbe58	0.42918658
156	0xbc9ee62c	-0.019396864
157	0x3ed536da	0.4164341
158	0x3de5d6bf	0.112226
159	0x3d3a1109	0.045426402

state_embedding.ability_embedding.embedding.weight f4 [261, 4]
0	0xbe893ab1	-0.2680259
1	0xbe728758	-0.23684442
2	0x3e6ebf0a	0.23315063
3	0xbf2169c8	-0.63052034
4	0x3d041a95	0.032251913
5	0xbed690f5	-0.41907468
6	0x3dec97ed	0.11552415
7	0xbec9ccfb	-0.394142
8	0x3c4deb97	0.012568376
9	0xbe47d55e	-0.19514987
10	0xbcbf96b0	-0.023387283
11	0x3f24d483	0.6438677
12	0x3e58ad40	0.2115984
13	0x3aefad9a	0.001828599
14	0xbf1e8b14	-0.61930966
15	0x3e0ef31a	0.13959923
16	0x3f3e34bb	0.7429921
17	0x3e8f7ae5	0.2802345
18	0xbef0df1d	-0.47045222
19	0x3f0c7cf4	0.54878163
20	0xbd895398	-0.06705397
21	0xbed375d7	-0.41300842
22	0xbeca3900	-0.39496613
23	0x3ecff858	0.4061916
24	0x3d9de62b	0.07709917
25	0x3f4a0727	0.78917164
26	0xbefe36f8	-0.49651313
27	0xbe9119eb	-0.28340086
28	0xbd9e6f03	-0.077360176
29	0x3ead147d	0.33804694
30	0x3f098e41	0.5373269
31	0x3f09013f	0.53517526
32	0x3f514f95	0.8176206
33	0xbdd22b7c	-0.102622
34	0xbba76e5b	-0.005109591
35	0x3e817ff9	0.25292948
36	0x3f16b4a8	0.5886941
37	0xbf12182e	-0.57068145
38	0x378472ae	1.5789028e-05
39	0x3f4aac2a	0.7916895
40	0xbf3b4cd0	-0.7316408
41	0x3c70b5bd	0.014691767
42	0xbe9240d6	-0.2856509
43	0xbd0fb3f2	-0.03508372
44	0xbe7f9d7f	-0.24962424
45	0xbef0e9ca	-0.47053367
46	0x3e398c14	0.18119842
47	0xbef1b985	-0.47211853
48	0xbf233664	-0.6375487
49	0xbd2f1d01	-0.04275227
50	0x37b4be91	2.1546412e-05
51	0xbd1ff8a0	-0.039055467
52	0xb50145ce	-4.8157824e-07
53	0xb5869ab9	-1.0028808e-06
54	0xbf32aa43	-0.6979105
55	0x3f51a9de	0.8189982
56	0x3e00d702	0.12582019
57	0xbeb097dd	-0.34490862
58	0xbeecd75f	-0.46258065
59	0xb6a59fa4	-4.935968e-06
60	0xbf31a66a	-0.6939455
61	0x3f32f785	0.69908935
62	0x3f18165f	0.59409136
63	0xbf3089bd	-0.6896017
64	0xbeb767b5	-0.3582131
65	0x3d76208c	0.060089633
66	0x3e8129f6	0.25227326
67	0x3742a339	1.1601304e-05
68	0x3e5eb9f5	0.21750624
69	0xbadcdeb0	-0.0016851034
70	0xbea8609c	-0.32886207
71	0xbec1c3ad	-0.378446
72	0x3f1b53d2	0.60674775
73	0x3d8cb9b9	0.06871361
74	0x37050e11	7.930693e-06
75	0x3eb983e7	0.36233446
76	0xbf377286	-0.71659124
77	0x3f0b099f	0.54311556
78	0x3efc07ed	0.49224797
79	0xb73df2be	-1.1321796e-05
80	0xbf0434cb	-0.51643056
81	0xb8bdc66a	-9.04918e-05
82	0xbee20d30	-0.44150686
83	0x3f1bfacf	0.6092958
84	0xbd2c5ae8	-0.042078882
85	0x3eb8c9c9	0.3609145
86	0x3de1a563	0.11017873
87	0x3e123e9d	0.14281698
88	0x3e3144fd	0.17311473
89	0xbeddb40c	-0.43301427
90	0xb7167d5f	-8.969887e-06
91	0xbec0a1de	-0.37623495
92	0x3f2575a9	0.6463266
93	0x3f2a7a72	0.66593087
94	0x3e81863d	0.25297728
95	0xbe6715be	-0.22566888
96	0xbe2198d0	-0.1578095
97	0x3eb4a608	0.35282922
98	0x3f19f2e4	0.60136247
99	0x3a8f1c33	0.0010918438
100	0x3dfa99e0	0.122363806
101	0x3f5985e7	0.84969944
102	0x3e4709f6	0.19437394
103	0x3dee939b	0.11649247
104	0x3e45bfc4	0.19311434
105	0x3e10d672	0.14144304
106	0xbf2dc77c	-0.67882514
107	0x3dcafb9a	0.099112704
108	0x3f229e17	0.63522476
109	0x3f29401c	0.6611345
110	0x3b117d31	0.0022199864
111	0x3bdc5d63	0.0067249998
112	0xbebceda5	-0.36900058
113	0x3cc8884c	0.024479054
114	0xbec848bc	-0.39117992
115	0x3e1562ac	0.14588422
116	0x3f592d9e	0.8483523
117	0xb9a631e6	-0.00031699165
118	0xbf44e567	-0.7691254
119	0x3ce97815	0.028499642
120	0xb8dff331	-0.000106787666
121	0x35ceae99	1.5399011e-06
122	0xbf4ea785	-0.80724365
123	0xbf3d19e8	-0.73867655
124	0x3d48ce0d	0.04902463
125	0x3e891f50	0.26781702
126	0x3de05960	0.10954547
127	0x3e7d1503	0.24715047
128	0xbcc627cb	-0.024188897
129	0x3f04d6d9	0.5189033
130	0x3c2cb4c9	0.010541149
131	0x3d1bf038	0.038070887
132	0x3f063f3c	0.5244024
133	0x3da4e557	0.080515556
134	0xbf458018	-0.7714858
135	0x3f4c461a	0.79794466
136	0xbeb9a3a3	-0.36257657
137	0x3ed7253a	0.4202059
138	0xbf1d8a49	-0.6153913
139	0xbe88078d	-0.2656826
140	0xbef25362	-0.4732924
141	0x3ed7e8dc	0.42169845
142	0xbf5825f3	-0.84432906
143	0xbed06801	-0.4070435
144	0xbeb36bee	-0.3504328
145	0xbdab7620	-0.0837214
146	0xbf1d5e1d	-0.6147173
147	0x3e487109	0.1957437
148	0xbb9128a7	-0.004429895
149	0x3b001b04	0.0019547353
150	0xbf2e6cd0	-0.68134785
151	0xbb695a97	-0.0035606974
152	0xbf20a9b9	-0.62758976
153	0x391b4d3a	0.00014810721
154	0x3e694fe5	0.22784384
155	0xbf288fd1	-0.65844446
156	0x3f33d208	0.7024236
157	0x3ec7cdd9	0.39024237
158	0x3c5de7dc	0.013544049
159	0xbf0c345a	-0.5476738
160	0xbd887820	-0.06663537
161	0x3eaf3e23	0.34227094
162	0xbd5dd505	-0.05415823
163	0x3e732500	0.23744583
164	0xbed129b8	-0.4085214
165	0xbf284f75	-0.6574624
166	0x3f0c667c	0.5484388
167	0xbd7d5240	-0.061846018
168	0x3f247a85	0.6424945
169	0xb3b29280	-8.315419e-08
170	0x3e46de47	0.1942073
171	0x3e80b2c3	0.25136384
172	0x3f2edcb6	0.6830553
173	0xbe3d5819	-0.18490638
174	0xbea87094	-0.3289839
175	0x3d66862f	0.05628031
176	0xbd70acd4	-0.05875857
177	0x3f20dd0c	0.6283729
178	0x3d058a7f	0.032602783
179	0xbecf9518	-0.40543437
180	0x3e3fbfcb	0.18725507
181	0x3e488782	0.19582942
182	0xbf11c02e	-0.5693387
183	0xbdd0eca7	-0.10201388
184	0x3f2374d6	0.6385015
185	0x3f2aa19c	0.66652846
186	0xbec0cd3d	-0.37656584
187	0x3eea0424	0.45706284
188	0xbe65a9c2	-0.22428039
189	0xbf4a2989	-0.7896963
190	0x3f549362	0.8303739
191	0x3d77a063	0.06045569
192	0x3e95ca51	0.29255918
193	0x3ebbfd2a	0.36716586
194	0x3ed84343	0.42238817
195	0xbdc3b8e3	-0.09556749
196	0x3f3d1d7a	0.738731
197	0xbe6c34a3	-0.23066954
198	0x3ebf9846	0.37420863
199	0x3f2a9082	0.6662675
200	0x3f4cf6b3	0.80063933
201	0xbf565459	-0.83722454
202	0x3ed1cea1	0.40977958
203	0xbed3289c	-0.4124192
204	0xb6f3903f	-7.258757e-06
205	0x3ea07361	0.31338027
206	0x3e3c4b3e	0.18388078
207	0x3f4b5c96	0.7943815
208	0xbdc620a0	-0.096741915
209	0xbe5efa3c	-0.21775144
210	0x3f1dbb4a	0.61613905
211	0x37dce5c5	2.6333038e-05
212	0x3e7e76c4	0.24849993
213	0x3ef03bd4	0.46920645
214	0x3f2727cd	0.65295106
215	0x3d0e2b54	0.03470929
216	0xbdaa8ac0	-0.08327246
217	0x3f3bb47e	0.73322284
218	0xbe5cdb33	-0.21567993
219	0xbd9a1096	-0.07522695
220	0xbf4ae55b	-0.7925622
221	0xb8c7d228	-9.528204e-05
222	0xbf45009c	-0.76954055
223	0xbec0c0e5	-0.37647167
224	0xbf2a8ed4	-0.6662419
225	0xbe856ac8	-0.2605803
226	0x3e2895e9	0.16463436
227	0xbb03e526	-0.0020125597
228	0xbdb7820f	-0.089603536
229	0xbf143e4a	-0.57907546
230	0xbd8e9f71	-0.06964005
231	0x3eb5dea2	0.35521418
232	0xbee5f980	-0.44916916
233	0x3f51e34b	0.81987447
234	0xbb2f86c3	-0.0026783205
235	0xbef704df	-0.48245904
236	0x3e2d6937	0.16934668
237	0x3d9b5344	0.07584241
238	0x3c14c31e	0.009079723
239	0xbe878207	-0.2646639
240	0x3f191e97	0.598123
241	0x3f01dcf2	0.5072776
242	0x3ef276ca	0.47356254
243	0xbe92955e	-0.28629583
244	0xbea1f4bb	-0.31632027
245	0x3f481c96	0.7816862
246	0x3f2a26e1	0.66465575
247	0x3f4cd038	0.80005217
248	0xbf34dc9f	-0.7064914
249	0x3e3db150	0.1852467
250	0xbeb89779	-0.36053064
251	0xbec15238	-0.3775804
252	0x3f1ea8cc	0.61976314
253	0x3e287b51	0.16453291
254	0xbf452bad	-0.7701977
255	0x3f19600f	0.599122

state_embedding.item_embedding.embedding.weight f4 [1257, 4]
0	0xbe99731b	-0.2997063
1	0xbee294f4	-0.44254267
2	0x3e267419	0.16255225
3	0xbefacc30	-0.48983908
4	0x37c7a861	2.3801056e-05
5	0x3ee74d55	0.45176187
6	0xbe93d372	-0.28872257
7	0xbf0ac9da	-0.5421425
8	0xbe82429e	-0.2544145
9	0x3de71393	0.1128303
10	0xbf15455c	-0.5830896
11	0x3c98318f	0.018578319
12	0x3f089f63	0.53368205
13	0x3ea0156e	0.3126635
14	0xbcb1e6a3	-0.021716421
15	0x3f229f31	0.63524157
16	0xbc98fa8f	-0.018674163
17	0xbe69b3b1	-0.22822453
18	0xb4efc554	-4.4660794e-07
19	0x3e65f476	0.22456536
20	0x3e7210f4	0.2363928
21	0xbf4852cf	-0.78251356
22	0xbec0ca83	-0.37654504
23	0x3eeaecbc	0.4588374
24	0xbe27fc43	-0.16404824
25	0x3f1d5df1	0.6147147
26	0xbf4662ab	-0.77494305
27	0x3f3e5af5	0.7435754
28	0xbe1da43c	-0.15394682
29	0xbec627ca	-0.38702232
30	0x3f56fefd	0.8398283
31	0x3f190684	0.5977557
32	0xbf1b5d85	-0.60689574
33	0x3eb6546c	0.35611284
34	0x3d91bc75	0.071160235
35	0xbc8d7e43	-0.01727212
36	0xbeb4bb77	-0.35299274
37	0xb7465cff	-1.1823372e-05
38	0x35e4305f	1.7001402e-06
39	0x3e29bc7d	0.16575809
40	0x3dd1f116	0.102510616
41	0xbed0a1e3	-0.4074851
42	0x3c972bbb	0.01845347
43	0xbf2b27ef	-0.6685781
44	0x3dad25bc	0.08454463
45	0x3f4c994e	0.79921424
46	0xbe851559	-0.2599285
47	0x3f1d61ef	0.6147756
48	0x3da5ece0	0.08101821
49	0x3e5b4597	0.21413265
50	0x3ee5e24b	0.4489921
51	0x3ebd556c	0.36979234
52	0x3f17efe8	0.5935044
53	0xbe16f3fc	-0.1474151
54	0x3ddb5ca0	0.10711026
55	0xbf0ba194	-0.54543424
56	0x3e35f1d8	0.17768037
57	0xbf4b6076	-0.7944406
58	0x3f0e73cd	0.5564545
59	0x3ed3255a	0.41239434
60	0xbe88f6cb	-0.26750788
61	0x3f44dd2a	0.7689997
62	0x3d17123e	0.03688263
63	0xbecd9d56	-0.401591
64	0x3f2c9678	0.674171
65	0x3e3e846f	0.18605207
66	0xbf1f76cc	-0.62290645
67	0x3efa7553	0.48917636
68	0x36bd29c6	5.637502e-06
69	0x3ea16a9b	0.31526646
70	0xbd102467	-0.035190966
71	0x3cb42bf0	0.021993607
72	0x35afa02e	1.3085134e-06
73	0x3e2c77c7	0.16842566
74	0xbdfe2ed7	-0.12411278
75	0x3f0bfe7b	0.5468518
76	0xbf06713c	-0.5251653
77	0x3dbc7982	0.09202863
78	0x3dcb0b75	0.09914295
79	0x3f23aa71	0.6393195
80	0x3f2f7815	0.68542606
81	0x3e9bbc7d	0.30417243
82	0xbf270ced	-0.652541
83	0x3f04076f	0.5157384
84	0x3f18f170	0.59743404
85	0xbf2d1b75	-0.6762002
86	0xbdc7cedd	-0.09756253
87	0xbf1dc600	-0.6163025
88	0x3f2c1369	0.6721712
89	0x3f22cb62	0.6359159
90	0x349be1b0	2.903521e-07
91	0x3e40ad44	0.18816096
92	0x3dd18efa	0.10232349
93	0x3d4f40f8	0.05059907
94	0x3f0f609b	0.56006783
95	0x3e86dd6d	0.2634081
96	0x3f3ebad9	0.74503857
97	0x3e8e920d	0.27845803
98	0x35b0f4e1	1.3184291e-06
99	0x3d80b899	0.06285209
100	0xb81380bb	-3.516742e-05
101	0x3ec276fb	0.379814
102	0x3d8bbc7c	0.0682306
103	0xbb7e5aa1	-0.0038811343
104	0x3efed696	0.4977309
105	0xbf4372ba	-0.76346934
106	0x3e0350d8	0.12823808
107	0x3e0305bc	0.12795156
108	0xb6d0236e	-6.2030076e-06
109	0x3ecc9763	0.3995925
110	0x35d15a40	1.559798e-06
111	0x3d4c90a5	0.04994263
112	0xbefcbdca	-0.49363548
113	0x3f11f409	0.57012993
114	0x3f058a0e	0.5216378
115	0x3ef70168	0.4824326
116	0x3df24ab4	0.11830655
117	0x3f5604cd	0.83601075
118	0x3f1f19a0	0.62148476
119	0x3e62e658	0.22158182
120	0x3f096ae2	0.53678715
121	0x3d9549be	0.07289456
122	0xbda3cec8	-0.07998425
123	0xbeec90a7	-0.4620411
124	0xbe01f2b0	-0.12690234
125	0xbf177968	-0.59169626
126	0xbd4abbbd	-0.049495447
127	0xbf5a39dc	-0.85244536
128	0xbe1feac6	-0.15616903
129	0x3f30f3f6	0.69122255
130	0xbea46150	-0.32105494
131	0x3de19957	0.110155754
132	0x3e4761b3	0.19470863
133	0xbd3bb80b	-0.045829814
134	0xbefb033a	-0.490259
135	0xbeb73789	-0.35784557
136	0x3f13b553	0.57698554
137	0x3e98ba08	0.2982943
138	0xbf3968de	-0.7242564
139	0x3da7de53	0.08196702
140	0xbf377058	-0.716558
141	0xbf3ce9b3	-0.73794097
142	0x3e558c0a	0.20854202
143	0x3794313a	1.7665898e-05
144	0xbcd546fb	-0.026034823
145	0xbeac92bc	-0.337057
146	0xbdf24c9f	-0.118310206
147	0xbf4d6ae2	-0.80241215
148	0x3f0b3b6e	0.5438756
149	0xbedc2442	-0.42996413
150	0x3e2adbe0	0.16685438
151	0x3d88ac31	0.06673468
152	0x3f4b443b	0.79400986
153	0xbf13b8b0	-0.57703686
154	0xbe30b57e	-0.17256734
155	0xbf43dcf4	-0.7650902
156	0xbe0ece4e	-0.13945886
157	0xb67e6a11	-3.7910688e-06
158	0x3edb3cfe	0.4281997
159	0x3f3f8867	0.7481751
160	0xbd84f026	-0.06491117
161	0xbc9f44bc	-0.019441955
162	0xbebd0762	-0.36919695
163	0x398a2c86	0.00026354584
164	0x360374d4	1.9588524e-06
165	0xbf312ff2	-0.69213784
166	0xbf5423e3	-0.8286726
167	0xbb9cd281	-0.004785836
168	0x3f096ba3	0.53679866
169	0x3f2f77df	0.68542284
170	0x3e260707	0.16213618
171	0xbed6b742	-0.4193669
172	0xb8ddaec9	-0.000105706575
173	0x3e4eb6f0	0.20186973
174	0x3f2848c3	0.65736026
175	0xbe9d2271	-0.3069034
176	0xbf0a29d1	-0.53970057
177	0xbe8cc9a4	-0.2749759
178	0xbf161c22	-0.5863668
179	0xbe8e445c	-0.2778653
180	0x3db72b6f	0.08943831
181	0xbf1e3a24	-0.61807466
182	0xbe236492	-0.15956333
183	0x3ea42719	0.3206108
184	0x3ed16551	0.4089761
185	0x3f33f17d	0.70290357
186	0x3f3f76cd	0.7479065
187	0xbedd2d99	-0.4319885
188	0xbf575fc6	-0.84130514
189	0x3eb63cc1	0.35593227
190	0xbf19e4ed	-0.6011494
191	0x3f42a1b1	0.7602797
192	0x3e9c8cbd	0.30576125
193	0x3f4b210b	0.79347295
194	0xbc959da7	-0.018263651
195	0x3e2231c4	0.15839297
196	0xbe9b790d	-0.30365792
197	0xbe6a1eaa	-0.2286326
198	0x3ea59564	0.32340539
199	0x3ee5ff34	0.44921267
200	0x3409d5a8	1.2836847e-07
201	0x3cb5c5c4	0.022189029
202	0xb96ff6ed	-0.00022884803
203	0x3ec1ef1c	0.37877738
204	0x361ad46e	2.3071439e-06
205	0x38fb1d40	0.00011974061
206	0xbf0754d2	-0.528638
207	0x3d132ab4	0.035929397
208	0x3f579c73	0.842231
209	0xbf247a58	-0.6424918
210	0x3d9a541b	0.07535573
211	0x3ed5c916	0.4175498
212	0xbbf6aa90	-0.007527657
213	0xbf49da30	-0.7884855
214	0xbf4a9809	-0.7913824
215	0x3e6ef6bd	0.2333631
216	0xbedbc7ef	-0.42925975
217	0x3f26c3a4	0.65142274
218	0xbf1b0e08	-0.60568285
219	0x3f1298ed	0.57264596
220	0xbeb9d8dc	-0.36298263
221	0xbe48c659	-0.19606914
222	0xbeb7f1cb	-0.3592666
223	0xbf5a7af8	-0.85343885
224	0x3f3e0246	0.7422222
225	0xbc145dcb	-0.009055565
226	0xbf250187	-0.64455456
227	0x3ede3e9c	0.43407142
228	0x3f339f04	0.70164514
229	0x3de7bb1e	0.11314987
230	0xbc889a05	-0.016675005
231	0xbe4cbe9f	-0.19994591
232	0x3e4ce294	0.20008308
233	0xbf20640d	-0.62652665
234	0x3df5e2a5	0.1200612
235	0x3c7e0108	0.015503176
236	0xbd42f5a2	-0.047597535
237	0x3ea7444e	0.326693
238	0xbec2c0f8	-0.38037848
239	0x3f2add74	0.6674416
240	0x3e2651ed	0.1624219
241	0xbf299ecc	-0.6625793
242	0xbed96ba4	-0.42464936
243	0x3f53f3c9	0.8279386
244	0x3a47b9f0	0.00076189544
245	0xbec2cdc9	-0.38047627
246	0x3e7b3ad6	0.24534163
247	0x3f3e4421	0.74322706
248	0x3ab7a726	0.0014011606
249	0xbf320592	-0.6953975
250	0x3e9e4f6e	0.30919975
251	0x3f2c0e9e	0.67209804
252	0x3ee9d25b	0.456683
253	0x3f571239	0.8401218
254	0x3ea0e7be	0.31426805
255	0x3eaa98b6	0.33319634

state_embedding.condition_embedding.embedding.weight f4 [8, 4]
0	0x3f084d04	0.53242517
1	0xb6691c86	-3.4736308e-06
2	0xbb2e5722	-0.0026602228
3	0xbe1e8648	-0.15480912
4	0x3ebc7174	0.36805308
5	0xbecd1eac	-0.40062463
6	0x3f038424	0.51373506
7	0x3da34353	0.079718255
8	0x3d0108c6	0.031502508
9	0x3e514283	0.20435528
10	0xbe3060ca	-0.17224422
11	0x3eae4fd4	0.3404528
12	0x3a99490e	0.0011694746
13	0x3e52afb9	0.20574845
14	0xbeef5b6c	-0.46749437
15	0xbf11d81d	-0.5697039
16	0xbe4508f0	-0.1924169
17	0x3899cbb3	7.3335505e-05
18	0x3d8b7794	0.06809917
19	0x3c12caae	0.008959455
20	0x3f0c4b37	0.5480227
21	0x3ce8cfe4	0.028419442
22	0xbe6caae0	-0.23112059
23	0x3d68cd02	0.056836136
24	0xbf039b88	-0.51409197
25	0x36faf229	7.4787717e-06
26	0x3ef8ede6	0.48619002
27	0xbe8f49cd	-0.27985993
28	0xbd1e98ec	-0.038720056
29	0x3ea68615	0.3252417
30	0x3eb491ae	0.35267395
31	0x3f16a6d5	0.58848315

state_embedding.weather_embedding.embedding.weight f4 [9, 4]
0	0xbecc8a51	-0.39949277
1	0xbf2d3dfc	-0.67672706
2	0xbea8279b	-0.32842717
3	0xb770f4fa	-1.4362153e-05
4	0xbd112814	-0.035438612
5	0x3d022e86	0.03178265
6	0xbf11b5f7	-0.5691828
7	0xbf1beaaf	-0.60904974
8	0x3f0cb433	0.5496246
9	0x3e76a493	0.24086218
10	0xbd325b42	-0.04354406
11	0x3ef90e32	0.48643643
12	0x3f2da1d5	0.6782506
13	0xbc3de34e	-0.011589838
14	0xbeaef52c	-0.34171426
15	0x3e0b3b31	0.13596798
16	0xbe33cdd9	-0.17558993
17	0x3d1f10b9	0.038834307
18	0xbea82045	-0.3283712
19	0xbf37f61a	-0.71859896
20	0xbf2da05e	-0.67822826
21	0xbf246f06	-0.6423191
22	0xbcecbd3a	-0.028898824
23	0x3bc87085	0.006116929
24	0x3f1c25cd	0.6099518
25	0xbe38e806	-0.1805726
26	0xbf000f1e	-0.50023067
27	0xbce851fd	-0.028359408
28	0xbf3cfa1a	-0.73819125
29	0x3f10940c	0.564759
30	0x3f19754d	0.5994461
31	0xbf3fe57d	-0.74959546
32	0xbf453854	-0.77039075
33	0xbf556a6a	-0.833655
34	0x3eedf76a	0.46477824
35	0xbf30cb8d	-0.69060594

state_embedding.alive_embedding.embedding.weight f4 [2, 4]
0	0xbe805286	-0.2506296
1	0x3e4b7d63	0.1987205
2	0xbefd1db9	-0.4943674
3	0xbec2dcc9	-0.3805907
4	0xbec5e50a	-0.38651305
5	0xbe17c8ac	-0.14822644
6	0x3f1e211d	0.61769277
7	0x3e2f4f96	0.17120203

state_embedding.disabled_embedding.embedding.weight f4 [2, 4]
0	0xbb77a771	-0.0037789012
1	0xbe4e69ab	-0.20157497
2	0x3eac416f	0.33643672
3	0x3dac9bed	0.08428178
4	0xbe72d21e	-0.23712966
5	0xbe3190d1	-0.173404
6	0xbec0eed7	-0.3768222
7	0x3f1057dc	0.5638406

state_embedding.spikes_embedding.embedding.weight f4 [4, 4]
0	0x3f064a92	0.52457535
1	0x3ed7e57e	0.42167276
2	0x3eb5e65e	0.3552732
3	0xbe448349	-0.19190706
4	0x3f098929	0.53724915
5	0xb5239477	-6.0938277e-07
6	0x3f12ce49	0.57346016
7	0xbdff13c8	-0.12454945
8	0x3f333418	0.70001364
9	0xbf39679c	-0.7242372
10	0x3f39e270	0.7261114
11	0xbea848d2	-0.32868057
12	0x3f0eaeea	0.5573565
13	0x3ec755a7	0.38932535
14	0xbc976aab	-0.01848348
15	0xbf1e8edf	-0.61936754

state_embedding.spikesopp_embedding.embedding.weight f4 [4, 4]
0	0xbecb0a6d	-0.39656392
1	0xbf00b374	-0.50273824
2	0x3ed8e3ea	0.42361385
3	0x3eb74267	0.35792848
4	0xbddef824	-0.10887173
5	0xbf302582	-0.6880723
6	0x3cf73833	0.030178165
7	0x3f2c9199	0.67409664
8	0xbe3d77e9	-0.18502773
9	0xbf17fb08	-0.5936742
10	0xbe71a87a	-0.23599425
11	0xbf26906e	-0.6506413
12	0xbddd8c6d	-0.108178
13	0x3e8db508	0.27677178
14	0xbf0b1c05	-0.5433963
15	0x3e471209	0.19440474

state_embedding.toxicspikes_embedding.embedding.weight f4 [3, 4]
0	0xbf3bbfc0	-0.7333946
1	0xbe80fe29	-0.2519391
2	0xbe9dc398	-0.3081329
3	0xbe124548	-0.14284241
4	0xbf352782	-0.7076341
5	0xbac5e3fd	-0.0015097853
6	0xbf154286	-0.5830463
7	0x3f0a2336	0.5395998
8	0x3e9e2921	0.30890754
9	0xbc3ded06	-0.011592155
10	0xb5de0536	-1.6541806e-06
11	0xbebefc0e	-0.37301677

state_embedding.toxicspikesopp_embedding.embedding.weight f4 [3, 4]
0	0xbf454368	-0.7705598
1	0x3ebff22c	0.3748945
2	0x3e89d227	0.26918146
3	0x3e217279	0.15766324
4	0x3f1d31cb	0.61404103
5	0xbed62b36	-0.41829842
6	0x3e6e78c1	0.23288251
7	0xbe94f38c	-0.29092062
8	0xbf24fce1	-0.6444836
9	0x3e5f9e66	0.21837768
10	0xbed6c9c3	-0.41950807
11	0x38b5c699	8.667744e-05

state_embedding.fieldeffect_embeddings.0.embedding.weight f4 [2, 4]
0	0xbe948f99	-0.29015806
1	0xbe464ef1	-0.19366051
2	0x3dd4f133	0.103975676
3	0x3f465d3e	0.77486026
4	0x3e057b3d	0.13035293
5	0x358af638	1.035346e-06
6	0xbf07bf53	-0.5302631
7	0xbf438672	-0.7637702

state_embedding.fieldeffect_embeddings.1.embedding.weight f4 [2, 4]
0	0x3e046c93	0.12932043
1	0xbf1bfde5	-0.6093429
2	0xbeedb57f	-0.46427533
3	0x3e9cf50e	0.30655712
4	0xbf415118	-0.75514364
5	0x3d80862b	0.062755905
6	0x3d04bf52	0.03240902
7	0xbf1c2648	-0.6099591

state_embedding.fieldeffect_embeddings.2.embedding.weight f4 [2, 4]
0	0x3f19b269	0.6003786
1	0xbe334a36	-0.17508778
2	0x3dfad673	0.12247934
3	0xbddcc8fd	-0.10780523
4	0xbec922e5	-0.39284435
5	0xbbceea65	-0.006314563
6	0xbe0fa6f6	-0.14028534
7	0x3ef93607	0.48674032

state_embedding.fieldeffect_embeddings.3.embedding.weight f4 [2, 4]
0	0x3ea1847e	0.31546396
1	0x3e860ede	0.26183218
2	0xbdaf0aec	-0.08547005
3	0xbebc11e1	-0.3673239
4	0xbe579bd2	-0.21055534
5	0x3f219d0d	0.63130265
6	0xbeae1ac8	-0.34004807
7	0x3cd7bf57	0.026336355

state_embedding.fieldeffect_embeddings.4.embedding.weight f4 [2, 4]
0	0x3ee37e67	0.44432375
1	0xbed55574	-0.41666758
2	0x3e89b1e1	0.26893523
3	0xbf0c76fc	-0.54869056
4	0x3f1aac46	0.6041912
5	0x3ec1dc7c	0.3786353
6	0xbf59e048	-0.8510785
7	0xbf3c6383	-0.7358934

state_embedding.fieldeffect_embeddings.5.embedding.weight f4 [2, 4]
0	0x3eaffbec	0.3437189
1	0x3f28ebb2	0.6598464
2	0xbe10c1f6	-0.1413649
3	0x3e663814	0.2248233
4	0x3da4ba08	0.08043295
5	0x3f061906	0.5238193
6	0x3d3ba2f7	0.045809712
7	0xbf48ea13	-0.7848217

state_embedding.fieldeffect_embeddings.6.embedding.weight f4 [2, 4]
0	0xbf05efaa	-0.52318823
1	0x3d05f15b	0.032700878
2	0xbda0134d	-0.07816181
3	0xbf331bc5	-0.6996425
4	0x3ed2cf68	0.41173863
5	0xbe635e5e	-0.22203967
6	0x3e797cae	0.24363968
7	0xbf165d6b	-0.58736295

state_embedding.fieldeffect_embeddings.7.embedding.weight f4 [2, 4]
0	0xbe813718	-0.25237346
1	0xbd3e3cbc	-0.04644464
2	0x3d227b04	0.039668098
3	0x3ea00bdc	0.31259048
4	0x3ed3c939	0.41364458
5	0xbdc8d748	-0.09806687
6	0xbec53511	-0.3851705
7	0x3eeddb0b	0.4645618

state_embedding.fieldeffect_embeddings.8.embedding.weight f4 [2, 4]
0	0xbdbfa61e	-0.09357856
1	0xbe8cdd41	-0.27512553
2	0xbf225462	-0.6341001
3	0x3f103091	0.56324106
4	0x3b304299	0.0026895164
5	0xbb482650	-0.0030540414
6	0x3ef06382	0.46950918
7	0x3dd99226	0.10623579

state_embedding.fieldeffect_embeddings.9.embedding.weight f4 [2, 4]
0	0x3f1cf531	0.6131163
1	0xbe740628	-0.23830473
2	0x3f05cf6b	0.5226962
3	0x3e4e029d	0.20118184
4	0xbeeb4fdc	-0.45959365
5	0xb6cfdc1b	-6.1947044e-06
6	0x3f54dbf2	0.8314811
7	0xbee6560d	-0.44987527

state_embedding.fieldeffect_embeddings.10.embedding.weight f4 [2, 4]
0	0xbe2d7cf4	-0.16942197
1	0xbf05a115	-0.52198917
2	0x3efa9b0d	0.4894642
3	0xbed05fec	-0.40698183
4	0x38ddb30e	0.00010571453
5	0x3cb2097b	0.021733036
6	0xbf0fb47d	-0.5613478
7	0xbf301242	-0.6877786

state_embedding.fieldeffect_embeddings.11.embedding.weight f4 [2, 4]
0	0xbe1ff1de	-0.15619609
1	0xbf1416f1	-0.57847506
2	0xbf0f3ddc	-0.55953765
3	0xbe8f4482	-0.27981955
4	0xbf3d2a6a	-0.73892844
5	0x3bacbe19	0.005271685
6	0xbf164310	-0.5869608
7	0x3eaebdbe	0.34129137

state_embedding.fieldeffect_embeddings.12.embedding.weight f4 [2, 4]
0	0x3ed166d8	0.40898776
1	0xbe863f80	-0.26220322
2	0x3e627385	0.2211438
3	0xbec8d975	-0.39228407
4	0xbea98097	-0.3310592
5	0xbeb2a7a4	-0.34893525
6	0x3f0c9523	0.54915065
7	0xbef59f8d	-0.4797329

state_embedding.fieldeffect_embeddings.13.embedding.weight f4 [2, 4]
0	0xbc47c636	-0.012193253
1	0x3f06b372	0.5261756
2	0xbe91760f	-0.28410384
3	0xbf06057c	-0.5235212
4	0x3f44c4cf	0.76862806
5	0xbf397335	-0.72441417
6	0xbe75524f	-0.2395718
7	0x3dbf997e	0.09355448

state_embedding.fieldeffect_embeddings.14.embedding.weight f4 [2, 4]
0	0x3f17e490	0.59333134
1	0x3d1ac11c	0.03778182
2	0x3f08a5fa	0.5337826
3	0xbea4f481	-0.32217792
4	0xbf195aa0	-0.5990391
5	0x3f13d8a8	0.57752466
6	0x3e28c2a6	0.16480502
7	0xbe58841d	-0.21144147

state_embedding.fieldeffect_embeddings.15.embedding.weight f4 [2, 4]
0	0x3db09932	0.0862297
1	0xbdf1f1be	-0.11813687
2	0x3f21cecc	0.6320617
3	0xbe03a6fa	-0.12856665
4	0xbecfcc56	-0.40585583
5	0xbdb5708c	-0.08859357
6	0xbeb5d264	-0.35512078
7	0x3ebf0ae5	0.37313

state_embedding.fieldeffect_embeddings.16.embedding.weight f4 [2, 4]
0	0xbeb13d63	-0.34617147
1	0xbf0b4af5	-0.5441125
2	0x3e871f59	0.26391104
3	0x3efa5c84	0.4889871
4	0x38dab484	0.00010428674
5	0x3f199e8b	0.6000754
6	0x3efa64a8	0.4890492
7	0xbe2b88a6	-0.16751346

state_embedding.fieldeffect_embeddings.17.embedding.weight f4 [2, 4]
0	0x3f02c1c0	0.5107689
1	0x3e0442cc	0.12916106
2	0xbea6077e	-0.3242759
3	0xbf16ff3c	-0.58983207
4	0x3efae789	0.49004772
5	0xbe7fc2ac	-0.24976605
6	0xbf3890dc	-0.7209604
7	0x3f1d86bd	0.6153372

state_embedding.fieldeffect_embeddings.18.embedding.weight f4 [2, 4]
0	0xbf360280	-0.71097565
1	0xbe865c4a	-0.26242286
2	0x3ecc3520	0.3988428
3	0x3e95c8a0	0.29254627
4	0x3eb2d84b	0.34930643
5	0x3f0f70a3	0.56031245
6	0x38d38839	0.000100866375
7	0x3ec02939	0.3753145

state_embedding.fieldeffect_embeddings.19.embedding.weight f4 [2, 4]
0	0xbde5e0cc	-0.11224517
1	0xbe09f2c9	-0.13471521
2	0xbdf55b58	-0.11980313
3	0x3ec6b806	0.38812274
4	0xbf2906e4	-0.6602614
5	0x3e26d6af	0.16292833
6	0xbf116dee	-0.56808364
7	0x3f28c0cb	0.6591918

state_embedding.fieldeffect_embeddings.20.embedding.weight f4 [2, 4]
0	0x3ee849ad	0.4536871
1	0xbf3b4562	-0.73152745
2	0x3bf0a3cd	0.0073437453
3	0x3e1fe42a	0.15614381
4	0x3ef71d54	0.48264563
5	0xbe474de3	-0.19463305
6	0xbf132212	-0.5747386
7	0x3f022541	0.50838095

state_embedding.fieldeffect_embeddings.21.embedding.weight f4 [2, 4]
0	0xbefd831a	-0.49514085
1	0x3f34c8d3	0.70618933
2	0xbdb5fd32	-0.08886184
3	0x3c10874b	0.008821319
4	0x3eb56f36	0.3543641
5	0xb5f8516a	-1.8501134e-06
6	0xbecea7f7	-0.40362522
7	0x3e9686c1	0.29399684

state_embedding.fieldeffect_embeddings.22.embedding.weight f4 [2, 4]
0	0xbec67e8e	-0.3876843
1	0xbe9f63a6	-0.31130713
2	0x3f241f38	0.64110136
3	0xbe8d5120	-0.27600956
4	0xbf3449f9	-0.70425373
5	0x3ecaedf0	0.39634657
6	0xbf1555a3	-0.58333796
7	0x3d86b99c	0.06578371

player.active_pokemon.move_embed.move.w_1.weight f4 [8, 8]
0	0xbd9b55cf	-0.07584726
1	0xbe1dedc2	-0.15422729
2	0xbd50d239	-0.050981734
3	0x3d92102e	0.07131992
4	0xbdcabc8d	-0.098992445
5	0x3aec84c1	0.0018044935
6	0x3b0e9f8b	0.0021762575
7	0xb7cbc38e	-2.4290548e-05
8	0x3bcb25fa	0.0061995955
9	0x3d13c2a1	0.036074284
10	0x371e641c	9.440842e-06
11	0x37c8277b	2.3860242e-05
12	0x3de87f29	0.11352379
13	0x3c8decdb	0.017324856
14	0x37a8b481	2.0111214e-05
15	0x3c32285f	0.010873883
16	0xbd3e368e	-0.046438746
17	0xba0c25c8	-0.0005346206
18	0x3e54da23	0.20786338
19	0xbc3bad16	-0.011454841
20	0x3dec5ce3	0.11541154
21	0x3e43e3ef	0.19129919
22	0xbc5e5e28	-0.013572253
23	0xb751230b	-1.246553e-05
24	0x3d033c9d	0.032040227
25	0xb7f8c679	-2.9656325e-05
26	0xb6b1b595	-5.29615e-06
27	0x3d8031de	0.062595114
28	0x3da0ab33	0.07845154
29	0xbe1473fe	-0.14497373
30	0x3d43b476	0.047779523
31	0xbc242e47	-0.010020799
32	0xbe0f006e	-0.13965008
33	0x3b95f13f	0.004575878
34	0x3defd862	0.117111936
35	0xb6993c0d	-4.566746e-06
36	0xb58e1dc0	-1.0588483e-06
37	0x3db4b72e	0.08824001
38	0x3dc28a55	0.09499041
39	0xba96abb9	-0.0011495269
40	0xb8d94394	-0.00010359954
41	0x38c84655	9.5498435e-05
42	0x341162b0	1.354008e-07
43	0xbe4f3287	-0.20234118
44	0xbdf40c2c	-0.11916384
45	0x35ecc137	1.7639603e-06
46	0x3e256e45	0.16155346
47	0x362e927c	2.6013286e-06
48	0x3dfdf868	0.12400895
49	0xbc927973	-0.017880177
50	0x3e50e01e	0.20397994
51	0x3da4b50f	0.08042347
52	0xbdbadf23	-0.09124591
53	0xb8511d52	-4.985679e-05
54	0x3dd8348b	0.10556897
55	0x3e215d8d	0.15758343
56	0x3e43da39	0.19126214
57	0x3e3d6c29	0.18498291
58	0xb7964af5	-1.7916298e-05
59	0x3e50293e	0.20328233
60	0xbd1311e1	-0.035905723
61	0xbe3c8ecb	-0.18413846
62	0x3dd985b5	0.10621206
63	0x370390fd	7.841966e-06

player.active_pokemon.move_embed.move.w_1.bias f4 [8]
0	0xb5169e0f	-5.610936e-07
1	0xbca0841e	-0.019594248
2	0xbe1a2cc0	-0.15056133
3	0xbe5339e4	-0.20627552
4	0x37388f9c	1.1000691e-05
5	0xbe494170	-0.19653869
6	0x3d8a7343	0.06760266
7	0x3d92fe97	0.071774654

player.active_pokemon.move_embed.move.w_2.weight f4 [16, 8]
0	0x3dfe793f	0.124254696
1	0x3df7a8b3	0.12092724
2	0x39a5de30	0.00031636795
3	0x3dca43af	0.09876191
4	0xbe2c12d5	-0.16804059
5	0x3d0d46e8	0.03449145
6	0xb73d4d5d	-1.128329e-05
7	0x3aac8f31	0.0013165233
8	0xb6d89f73	-6.455864e-06
9	0xbe444b09	-0.19169249
10	0x3e412828	0.18862975
11	0xbe200e31	-0.15630414
12	0x3b88a7df	0.0041704024
13	0xb727ee98	-1.0009528e-05
14	0x3e2b45c4	0.16725832
15	0x3d095fc1	0.033538584
16	0xb85d2707	-5.2726853e-05
17	0x3d56cf18	0.052443594
18	0x3df7b8ac	0.1209577
19	0x3d99dda1	0.075129755
20	0x3e27c702	0.16384509
21	0x3d9d3cf1	0.07677639
22	0xbcde9fd7	-0.027175827
23	0x3e11295e	0.14175937
24	0x369b426d	4.627093e-06
25	0x37101843	8.588718e-06
26	0xb9eb7057	-0.00044906393
27	0x3e56f085	0.20990188
28	0xbe4087a6	-0.18801746
29	0x3dffac4e	0.124840364
30	0xbe556769	-0.20840229
31	0xbe128895	-0.14309914
32	0x3cded1eb	0.027199706
33	0xb6df9811	-6.6636208e-06
34	0xbcf9284a	-0.03041472
35	0xb79d15b3	-1.8725963e-05
36	0x352ac75e	6.362005e-07
37	0xbd8b8142	-0.06811763
38	0x3e56eb7a	0.20988265
39	0xbcd8e034	-0.026474096
40	0xbcf83344	-0.030297883
41	0xb6e911aa	-6.9459975e-06
42	0xbd9d5508	-0.07682234
43	0x3dd8ff64	0.10595587
44	0x3dd14a06	0.10219197
45	0xbe160e7b	-0.14653961
46	0xbe11fa1f	-0.1425557
47	0x3d80dfd1	0.062926896
48	0xbb1ea8f9	-0.0024209602
49	0xb5f7d9ca	-1.8466319e-06
50	0xbcc98be1	-0.024602832
51	0x36a931ce	5.0423905e-06
52	0x3e33c635	0.17556079
53	0x3e1508af	0.14554094
54	0x3e3e9458	0.18611276
55	0x3da1a974	0.07893649
56	0x37193391	9.131517e-06
57	0xbe309cda	-0.17247334
58	0x3d463591	0.04839093
59	0x3e2cac7d	0.16862674
60	0xbdb2a143	-0.087221645
61	0x3d5ebb55	0.054377872
62	0xb79072f9	-1.7219676e-05
63	0xbd70ee91	-0.058821265
64	0xb8dd4d79	-0.000105525316
65	0x3e0d4ca3	0.13798766
66	0x3c805a84	0.015668161
67	0x3d5d1bef	0.053981718
68	0xbb465d13	-0.003026788
69	0x370e5425	8.483451e-06
70	0x3e5d7fd4	0.21630794
71	0x3c2afe16	0.010436555
72	0xbe0050b8	-0.12530792
73	0x3e32ba2f	0.17453836
74	0x3e066018	0.13122594
75	0xbe54317e	-0.20722005
76	0xbe3755f4	-0.17903882
77	0x38bf1453	9.1113754e-05
78	0xbd9d1a3c	-0.076710194
79	0xbcb02fd4	-0.021507181
80	0x3b92a6a7	0.004475433
81	0x36fb7115	7.4935474e-06
82	0xbded78d0	-0.11595309
83	0x3dccdfb1	0.10003603
84	0xbe0abe0f	-0.13549064
85	0xbe573b8c	-0.21018809
86	0xb813a390	-3.519986e-05
87	0xbc8cc64e	-0.017184403
88	0xbdbb5f9a	-0.09149094
89	0xb5a27956	-1.2105254e-06
90	0xba615b9b	-0.0008596719
91	0xbe0f7f62	-0.14013436
92	0x3684687c	3.94607e-06
93	0x3d33cb26	0.04389491
94	0xbe5783ef	-0.21046422
95	0x3c78d521	0.015187533
96	0x3e4527df	0.19253491
97	0xbb6a60fd	-0.0035763376
98	0xbd41816f	-0.047242578
99	0xbe210858	-0.15725839
100	0xbe37268c	-0.17885798
101	0x3e3b4e4f	0.18291591
102	0xbe0a0c3d	-0.13481231
103	0xb94efad0	-0.00019739126
104	0x3cfe0d89	0.031012313
105	0xbe4cb5ce	-0.19991228
106	0x37567b6b	1.27841295e-05
107	0xbd96f794	-0.073714405
108	0xb74b4990	-1.21168705e-05
109	0x3e49600b	0.19665544
110	0x3dde96e2	0.10868622
111	0x3d99950d	0.07499132
112	0x3d8af34b	0.06784686
113	0xbe072bee	-0.13200352
114	0xbd5fa77b	-0.05460308
115	0xbe14664d	-0.1449215
116	0xbd877ed3	-0.06615987
117	0x37eb71c6	2.8067163e-05
118	0xb4b9a326	-3.457764e-07
119	0xbe35db82	-0.17759517
120	0x3b802d2c	0.003911635
121	0xbdc6b455	-0.09702364
122	0x3c0c2c9d	0.0085555585
123	0x3d0c13cf	0.03419858
124	0x3dcc475d	0.09974549
125	0xbe4463ef	-0.19178747
126	0x3c1f4a68	0.00972233
127	0x38abedfa	8.198242e-05

player.active_pokemon.move_embed.move.w_2.bias f4 [16]
0	0x3d38fa18	0.045160383
1	0x35f950f8	1.8575511e-06
2	0xbe17e4b3	-0.14833336
3	0x3c943ed7	0.01809637
4	0x3cb494f5	0.022043684
5	0x3e0351ab	0.12824123
6	0x39ee13cc	0.00045409647
7	0x35de6dd6	1.6572255e-06
8	0xbd95394f	-0.07286321
9	0xbcbb293e	-0.022846814
10	0x3d3b28a3	0.04569305
11	0xbcd81b91	-0.026380332
12	0x3e0dec9c	0.1385979
13	0x3e5ee6c9	0.21767725
14	0xbe3deffb	-0.18548577
15	0xbc540a01	-0.012941838
