network_9.pth (torch_old, 859342 bytes, 434 tensors)

state_embedding.pokemon_embedding.embedding.weight f4 [893, 32]
0	0xbd94897d	-0.07252786
1	0x3dbb5aea	0.091482
2	0xbdefaa44	-0.117023975
3	0xbd15cbbc	-0.03657125
4	0xbcc24268	-0.023713306
5	0xbc61aab8	-0.013773613
6	0x3ae0daea	0.0017155085
7	0xbe04fa1c	-0.12986034
8	0x3c03eb50	0.008051708
9	0x3b037048	0.0020055939
10	0xbb380463	-0.0028078787
11	0xb7546e95	-1.2661932e-05
12	0x3d284594	0.04108198
13	0xbcf5472a	-0.02994116
14	0xbceec511	-0.029146703
15	0x3c1734a5	0.00922886
16	0x3d9e69d0	0.07735026
17	0x3dbe1baf	0.09282624
18	0xbd6816c3	-0.056662332
19	0xbdbc85af	-0.092051856
20	0xbd525288	-0.05134824
21	0xbd26e708	-0.040747672
22	0xbdcd2d92	-0.100184575
23	0x3ba38199	0.0049898145
24	0x3b4f7fd4	0.0031661885
25	0x3ce37aba	0.027768482
26	0x39108d41	0.00013785531
27	0xbc6e964d	-0.014562202
28	0x3da29a8a	0.07939632
29	0x3dc6848c	0.0969325
30	0xbcd9328f	-0.026513366
31	0x3dc97a7c	0.09837815
32	0x3e1109b8	0.14163864
33	0x3cbbf212	0.022942577
34	0x3ec4d5b3	0.3844429
35	0xbe5e35ef	-0.21700262
36	0x3e45ea18	0.19327581
37	0xbe6d6174	-0.23181707
38	0x3d9b6c8b	0.07589062
39	0x3f18f361	0.59746367
40	0xb63b13b8	-2.787665e-06
41	0xbf3ffaa6	-0.74991834
42	0xbe6ef970	-0.2333734
43	0x373b8978	1.11780755e-05
44	0x3eb89387	0.36050054
45	0x3d8164ab	0.06318029
46	0xbdda9989	-0.10673816
47	0x3f336789	0.7007986
48	0x3f36202d	0.71142846
49	0xbebe72aa	-0.37196857
50	0xbeaf8586	-0.34281558
51	0x3e511444	0.20417887
52	0x3eab4123	0.33448133
53	0x3c05333b	0.00812989
54	0x3f3674ec	0.7127216
55	0xbdcb14d5	-0.09916083
56	0xbdbc7d38	-0.09203571
57	0xbe98ca5a	-0.29841882
58	0x3f33b113	0.7019207
59	0xbeeaed1c	-0.45884025
60	0x3f08bdf5	0.5341485
61	0xbf304607	-0.68856853
62	0x3f22a589	0.63533837
63	0x3e1a2941	0.150548
64	0xbf01a4af	-0.5064191
65	0xbe7bbaa6	-0.2458292
66	0x3d3f21ac	0.04666297
67	0x3f2a3bc9	0.66497475
68	0xbc0c3b3a	-0.008559043
69	0xbf4d194b	-0.8011672
70	0xbf4c84e1	-0.7989026
71	0xbee43801	-0.44573978
72	0x3ebb5c1f	0.3659372
73	0x3f0ec48b	0.5576865
74	0xbf285028	-0.6574731
75	0x3f12b518	0.5730758
76	0x3e84782d	0.25872937
77	0x3f2a2ca6	0.6647438
78	0xbf35174d	-0.7073868
79	0xbf1f7139	-0.6228214
80	0xbf3aa9fd	-0.7291563
81	0xbede33f5	-0.43399015
82	0x3e39a40b	0.18128984
83	0x3e28fc14	0.1650241
84	0xbddbb923	-0.107286714
85	0xbeed911a	-0.46399766
86	0x3e911a3c	0.28340328
87	0x3db3cd53	0.08779397
88	0x3dc707a0	0.09718251
89	0xbe43f49f	-0.19136284
90	0x3f3a6a70	0.7281866
91	0x3cd61ab1	0.026135774
92	0xbf33dae1	-0.7025586
93	0xbe9edbb0	-0.31026983
94	0x3993226e	0.00028063677
95	0x3ecc3025	0.3988048
96	0xb580ed92	-9.605885e-07
97	0xbc591506	-0.013249641
98	0xb6982f7e	-4.535482e-06
99	0xbf0c7991	-0.54872996
100	0x3f210095	0.62891513
101	0xbecdea91	-0.40218022
102	0x3e0e375d	0.13888307
103	0x3f02e334	0.51127934
104	0xbf21dfe8	-0.6323228
105	0xb5769932	-9.186507e-07
106	0xbd5e8f12	-0.05433566
107	0x37ad6ed1	2.067481e-05
108	0x3e469b16	0.19395098
109	0xbee56965	-0.44806972
110	0x3610b95a	2.156556e-06
111	0xbec83d46	-0.39109248
112	0x3e82f805	0.2557985
113	0xbe75a8d9	-0.23990192
114	0x3e69bc49	0.22825731
115	0x3d75e68c	0.06003432
116	0x3edc68a8	0.43048596
117	0xbed3d5b3	-0.41373977
118	0xbf434988	-0.76284075
119	0x3e858d70	0.2608447
120	0xbf4d0464	-0.80084825
121	0x361165b6	2.1665887e-06
122	0xbeec12df	-0.46108148
123	0xbf008cfe	-0.50215137
124	0xbd63032c	-0.055422947
125	0xbf49a5d8	-0.7876868
126	0x3c7ebc7a	0.015547866
127	0xbcd22193	-0.025650775
128	0xbde185f7	-0.1101188
129	0xbe9165ae	-0.28397888
130	0x3e1603f8	0.14649951
131	0xbc23f815	-0.010007878
132	0xbbbd73d2	-0.005781629
133	0x3d638639	0.055547927
134	0x3e378c99	0.17924727
135	0xbe00ffe5	-0.12597616
136	0x3f0b86ca	0.54502547
137	0x3eff8dd0	0.49912882
138	0xbba6ebb9	-0.0050940183
139	0xbf1f2a65	-0.62174064
140	0x3f2664cc	0.64997554
141	0x3e82c1af	0.25538394
142	0xbf4923e2	-0.7857038
143	0xbdc7379e	-0.09727405
144	0x3f411b61	0.754324
145	0x3e9db536	0.30802315
146	0x3f0489fb	0.5177304
147	0xbea82ad1	-0.32845166
148	0x3db408ed	0.08790765
149	0xbeba5713	-0.36394557
150	0xbe2410b7	-0.16022001
151	0x3e9e3711	0.30901387
152	0xbdc9def7	-0.0985698
153	0xbf3f56b2	-0.7474166
154	0xbf1ff13d	-0.62477475
155	0x38e1f7ed	0.00010775016
156	0xbe65a245	-0.22425182
157	0x3e8cafcb	0.2747787
158	0xbe78fba2	-0.2431474
159	0x3cc9470f	0.024570016
160	0xbd9318ea	-0.07182486
161	0xbc99ae68	-0.018759921
162	0x39db1bff	0.00041791794
163	0xbcdfe6f5	-0.027331809
164	0xbd1160d3	-0.03549273
165	0xb8b198ee	-8.468503e-05
166	0x3ccc0d11	0.024908574
167	0x3dea7be1	0.11449409
168	0x3ad9bf1a	0.0016612739
169	0x3c18be3a	0.009322697
170	0xbd0056b5	-0.03133269
171	0xbddd500b	-0.108062826
172	0x3e051ab7	0.12998472
173	0x3d6bc0a9	0.057556782
174	0xbd45b7eb	-0.0482711
175	0xb90dd45b	-0.00013525916
176	0x3b019731	0.0019773955
177	0x3b878da8	0.00413676
178	0xbda71718	-0.08158702
179	0xbdd86693	-0.105664395
180	0x3d9f33a8	0.077735245
181	0xbdaea0e5	-0.08526782
182	0x38d61774	0.00010208684
183	0x39ed235a	0.00045230502
184	0xbe10225a	-0.14075604
185	0xbd5a9fa4	-0.0533749
186	0xbd9c448f	-0.07630264
187	0x3d0b0c89	0.0339475
188	0x3aeba79e	0.0017979031
189	0x3d795199	0.060868833
190	0x3a33bc76	0.0006856391
191	0x39563fcc	0.00020432397
192	0xbf34d320	-0.7063465
193	0xbe464457	-0.19362007
194	0xbddc2235	-0.10748712
195	0x3e961ce2	0.2931891
196	0xbf0da857	-0.5533499
197	0x3c049d9b	0.008094217
198	0xbf018e3d	-0.50607663
199	0xbf12923c	-0.57254386
200	0xbec81ec9	-0.39085987
201	0xbf1ba4d5	-0.6079839
202	0xbf16b3c8	-0.58868074
203	0xb5851abd	-9.917054e-07
204	0xbf3583fc	-0.7090452
205	0xbe52fbb1	-0.20603825
206	0xbf0aadc8	-0.5417142
207	0x3f3bc0f2	0.73341286
208	0x3f13b0a0	0.57691383
209	0x3ef748ef	0.4829783
210	0xbea23f26	-0.31688803
211	0x3f297071	0.66187197
212	0x3e29c8cb	0.16580503
213	0xbe8ff358	-0.28115344
214	0x3f3318eb	0.69959897
215	0xbf0000bb	-0.50001115
216	0xbf233547	-0.6375317
217	0x3f237de5	0.63863975
218	0x3f1f8e71	0.62326723
219	0xbe292e53	-0.16521578
220	0xbdcc3273	-0.0997056
221	0x3ea8d792	0.32976967
222	0xbf45df38	-0.7729373
223	0x3f320792	0.695428
224	0x3f4a9d39	0.7914615
225	0x3f279575	0.6546243
226	0xbd15e7b2	-0.036597915
227	0x3e89f6b5	0.26946035
228	0xbeca69bd	-0.39533797
229	0xbe9ba01f	-0.303956
230	0xbc60fdb8	-0.013732366
231	0x3d93b0c8	0.07211453
232	0xbf4ac774	-0.7921059
233	0xb7b6f558	-2.1810338e-05
234	0xbf06d8ec	-0.52674747
235	0xbec18ad1	-0.3780122
236	0x3e06cdb0	0.13164401
237	0x3ea09c93	0.31369457
238	0xbc91b261	-0.017785253
239	0xb9c1cf57	-0.0003696631
240	0x3f311c25	0.6918357
241	0x3e77f8cc	0.24216002
242	0xbe85cfcc	-0.261351
243	0x3f0f0ce3	0.5587904
244	0xbf2799e6	-0.65469205
245	0x3e7aa1b4	0.24475747
246	0x3e800b40	0.25008583
247	0xbf2670f5	-0.6501611
248	0xb595d82c	-1.1164279e-06
249	0xbf2a44f0	-0.6651144
250	0xbf1a6db3	-0.6032364
251	0x3f38c78f	0.721795
252	0x3e334223	0.17505698
253	0x3df117ca	0.117721155
254	0x3f29bb1a	0.6630112
255	0x3daf0ae4	0.08546999

state_embedding.type_embedding.embedding.weight f4 [20, 8]
0	0x3d00ecf1	0.031475965
1	0xbe97420d	-0.2954258
2	0x3cc6bf48	0.024261132
3	0x3ea167f1	0.31524613
4	0xbe9d00fd	-0.30664816
5	0x3e6db45c	0.23213333
6	0x3e17dc83	0.14830212
7	0xbe42ee32	-0.19036177
8	0x3f36ae20	0.71359444
9	0x3de6ffbc	0.11279246
10	0x3e0664d3	0.13124399
11	0xbeb39aca	-0.35079032
12	0x3f045977	0.5169901
13	0xbf199db1	-0.60006243
14	0x3dd2fa44	0.10301641
15	0x3dd85d34	0.10564652
16	0x3f4e37c5	0.8055385
17	0x3f370430	0.71490765
18	0x3f4dac8e	0.8034142
19	0xbedef95a	-0.43549615
20	0xbe0562c3	-0.13025956
21	0xbef878cc	-0.4852966
22	0xbf28bc41	-0.6591225
23	0xbf4a04b3	-0.7891342
24	0x3f0cfad1	0.55070215
25	0x3e531e43	0.20617013
26	0x3e3f4818	0.18679845
27	0x3f375394	0.71611905
28	0xbf0fb695	-0.56137973
29	0xbef4da06	-0.4782259
30	0x3e0221dd	0.1270823
31	0x3cb65e59	0.022261785
32	0x3d978903	0.0739918
33	0xbe018a2e	-0.12650368
34	0xbe4fedab	-0.20305507
35	0x3ed5fd5b	0.41794857
36	0x3dcf0a66	0.10109405
37	0x3dbefc88	0.0932551
38	0xbf36f31e	-0.7146472
39	0xbf26f1f6	-0.65212953
40	0xbca4d698	-0.020121858
41	0x3cd1e5d5	0.025622288
42	0x3ebeaac5	0.37239662
43	0xb8059bbc	-3.185471e-05
44	0x3eb9f38c	0.36318624
45	0xbe811cf1	-0.25217393
46	0xbae5254f	-0.0017482432
47	0xbe6e6660	-0.2328124
48	0xbf3c7131	-0.73610216
49	0x3f4dac3f	0.8034095
50	0x3f47d343	0.78056735
51	0xbd2448ea	-0.0401086
52	0x3dbb1fea	0.091369465
53	0x3f22cf0f	0.63597196
54	0x3f079f5e	0.5297755
55	0xbf263ad4	-0.64933515
56	0x3cf40132	0.029785726
57	0xbee43d0e	-0.4457783
58	0xbdd81808	-0.105514586
59	0xbc499970	-0.012304649
60	0xbe12a773	-0.1432169
61	0x3c8c6110	0.017136127
62	0x3f409034	0.75220037
63	0x3c9d0f66	0.019172382
64	0x3ddf57bd	0.109054066
65	0xbe7e4571	-0.24831177
66	0xbec2d325	-0.38051715
67	0x3e3f2c90	0.18669343
68	0xbe526349	-0.20545687
69	0xbe479dc2	-0.19493774
70	0x3c06d8c0	0.008230388
71	0x3d532fcf	0.051559266
72	0xbd82bc31	-0.06383551
73	0xbed79f80	-0.42113876
74	0xbcb26bcd	-0.021779919
75	0xbc2ecc5e	-0.010668842
76	0x3dd3eae4	0.10347536
77	0xbebdac58	-0.3704555
78	0x3b1b0414	0.0023653554
79	0xbe9374dc	-0.28800094
80	0x3ec87a4a	0.391558
81	0x3f4cfa97	0.8006987
82	0xbf0c78e8	-0.5487199
83	0xbf31f48e	-0.69513786
84	0xbc6224e3	-0.01380274
85	0x3e022657	0.12709938
86	0x398f6b4c	0.00027355028
87	0x3f1b8e86	0.6076435
88	0x3ecc926c	0.3995546
89	0x3e316772	0.17324618
90	0x36b71fa4	5.4575085e-06
91	0x3e703dad	0.23461027
92	0x3831b7d5	4.2371295e-05
93	0xba196bcb	-0.0005852549
94	0x3ec89a74	0.39180338
95	0x3d8608f0	0.065446734
96	0xbf00ff6e	-0.50389755
97	0x3dbb21cb	0.09137305
98	0x3ee38773	0.44439277
99	0x3f1ec5b9	0.6202045
100	0x3f1bc41b	0.6084611
101	0xbd5cb5ee	-0.05388444
102	0x3e7feba1	0.24992229
103	0xbf367164	-0.7126677
104	0x3ebaba54	0.36470282
105	0xbe3a3c42	-0.18187049
106	0xbd4aac1a	-0.049480535
107	0x3f231357	0.63701385
108	0x3f0d0cff	0.55097955
109	0x3f49bc02	0.788025
110	0x3cbcda96	0.023053449
111	0x3e43eb48	0.19132721
112	0x3e58bfea	0.2116696
113	0xbc2eb7ea	-0.010663966
114	0xbe04aa63	-0.12955622
115	0xbdeeebb0	-0.116660476
116	0xbb1363ab	-0.0022489827
117	0xbec83b55	-0.39107767
118	0xbeafdbbe	-0.34347337
119	0x3de07cc9	0.10961301
120	0xbd627a80	-0.055292606
121	0x3ed743e2	0.42043978
122	0x3d87b008	0.06625372
123	0x3e09af42	0.13445762
124	0xbe2da41a	-0.16957131
125	0xb96272f1	-0.00021595859
126	0x3c38ebc6	0.0112866815
127	0xbcd95bc1	-0.02653301
128	0xbe918902	-0.2842484
129	0x3ba4c564	0.0050284136
130	0xbe598b74	-0.21244603
131	0x3e9997f4	0.29998744
132	0x3c230568	0.009950019
133	0x3d337f16	0.04382237
134	0xbecec002	-0.40380865
135	0x3cbb5ae0	0.022870481
136	0xbe41ac87	-0.1891347
137	0x3eb55150	0.354136
138	0xbc42d66b	-0.011891942
139	0x3bb54152	0.0055314684
140	0x3f438f7f	0.7639083
141	0xbf486742	-0.7828256
142	0x3cede9fc	0.029042237
143	0xbf2ea16f	-0.6821508
144	0xbec1425e	-0.37745947
145	0x3ea9afc6	0.33141917
146	0xb4928a24	-2.729513e-07
147	0x3ef3efc9	0.4764388
148	0x3f2d948a	0.6780478
149	0xbd891a49	-0.066944666
150	0xbc4b8a56	-0.012423119
151	0xb722c268	-9.701216e-06
152	0xbdd91ace	-0.10600816
153	0x3e742432	0.23841932
154	0x3eb31c0e	0.34982342
155	0x3d4e12c3	0.05031086
156	0x3ebcb6ad	0.3685812
157	0x39868dad	0.00025664028
158	0xbd09381e	-0.033500783
159	0xbe4eb74d	-0.20187111

state_embedding.move_embedding.embedding.weight f4 [1003, 8]
0	0xbd804ec5	-0.06265024
1	0xb4da8e4c	-4.07092e-07
2	0x3e443fe8	0.19165003
3	0xbe95a534	-0.29227602
4	0x3e09f640	0.13472843
5	0xbe9ef786	-0.3104822
6	0xbe56fe6f	-0.20995496
7	0xbe2afca9	-0.16697945
8	0x3de71c7e	0.11284731
9	0x3e857635	0.26066747
10	0x3eb2add1	0.34898236
11	0x3d91cd82	0.07119276
12	0xbea209ea	-0.3164819
13	0xbec0c6f9	-0.37651804
14	0xbd81a8c7	-0.0633102
15	0x3e58e385	0.21180542
16	0xbcd1a2ba	-0.02559029
17	0x3ee7a710	0.45244646
18	0x3bd3813d	0.0064546154
19	0xbeb1c2c4	-0.34718907
20	0x3e946fef	0.2899165
21	0xbe07b749	-0.13253511
22	0xbf337018	-0.70092916
23	0x3f1e1e06	0.6176456
24	0xbeecfb2d	-0.46285382
25	0xbe0e4ba9	-0.1389605
26	0x3f30673f	0.6890754
27	0xbf0b1fcd	-0.543454
28	0x3f42df30	0.7612181
29	0xbcc7a8d1	-0.02437249
30	0x3ee84113	0.45362148
31	0xbc6cda40	-0.014456332
32	0xbeaf059c	-0.34183967
33	0x3f119c62	0.56879246
34	0x3f0fc2fd	0.56156904
35	0x3f29912a	0.6623713
36	0x3f37628a	0.71634734
37	0xbe0af216	-0.13568911
38	0xbe0e7834	-0.13913041
39	0xbef0fc8b	-0.47067675
40	0x3f4a224f	0.789586
41	0xbd467df9	-0.04845998
42	0x3d65e274	0.056124166
43	0xbe5a8fe8	-0.21343958
44	0x33249399	3.8318465e-08
45	0x36157226	2.2269173e-06
46	0xbdc49655	-0.09598986
47	0x3dd37eb4	0.10326901
48	0x3f3574ab	0.70881146
49	0xbf1edbc6	-0.620541
50	0x3f2b814f	0.66994184
51	0x36d43bd6	6.325058e-06
52	0x3aae3d49	0.0013293411
53	0xbf09f2ca	-0.5388609
54	0x3e82bb60	0.2553358
55	0xbeeab3b9	-0.45840243
56	0xbf0da335	-0.5532716
57	0xbf1feccb	-0.6247069
58	0xbf1808c2	-0.59388363
59	0x3d2d61a5	0.04232945
60	0x3f26b973	0.65126723
61	0xbd16d919	-0.036828134
62	0xbedf1d9e	-0.43577284
63	0x3e94b10a	0.2904132
64	0xbd296138	-0.04135248
65	0xbf1e1642	-0.6175271
66	0xbda9ce66	-0.082913205
67	0xbd6e2593	-0.058141302
68	0xbe20d7c5	-0.1570731
69	0xb53d7e01	-7.0591346e-07
70	0xbe9688e4	-0.29401314
71	0x3edba6af	0.42900607
72	0xbc91a8b0	-0.017780632
73	0x3bf55058	0.0074863844
74	0x3f022a3c	0.50845695
75	0xbd8b7a05	-0.06810383
76	0x3cec20fc	0.028824322
77	0x3ece98e5	0.40351024
78	0xbeb88586	-0.3603937
79	0xbeb0f16b	-0.34559187
80	0xbd9d405a	-0.0767829
81	0xbc080c82	-0.008303763
82	0xbf345120	-0.70436287
83	0xbf3d0001	-0.7382813
84	0x3f481ac7	0.7816586
85	0xbebe1c1e	-0.37130827
86	0xbdde5929	-0.1085685
87	0xbef3bf8d	-0.4760708
88	0x3ec882ee	0.3916239
89	0x3ebbfe4d	0.36717454
90	0xbdc24c46	-0.09487204
91	0xbe07b5f3	-0.13253002
92	0xbe34ec7d	-0.17668338
93	0x3a8af1bc	0.0010600607
94	0x3f0e3a6f	0.5555791
95	0x3522e9e5	6.0690064e-07
96	0xbe4f5036	-0.20245442
97	0xbd232d41	-0.03983808
98	0xbf2fdb5e	-0.686941
99	0xbf339e20	-0.70163155
100	0x3e0e4625	0.13893946
101	0x3f0cb504	0.5496371
102	0x3e8a30a9	0.2699025
103	0xb605f314	-1.9960034e-06
104	0x3ea1c490	0.31595278
105	0x3ee86c94	0.4539534
106	0x3f4c5818	0.7982192
107	0x3e94184c	0.28924787
108	0xbecdf751	-0.4022775
109	0xbf11096d	-0.5665501
110	0x35220f48	6.037194e-07
111	0xbb886539	-0.0041624573
112	0x3edba43c	0.42898738
113	0x3e8f64ce	0.28006595
114	0x3ea96111	0.33081868
115	0x3f04adf0	0.5182791
116	0x3c1692a6	0.009190237
117	0xbf40a934	-0.75258183
118	0xbe8c9f0b	-0.2746509
119	0xbe8adab8	-0.27119994
120	0x3ede679b	0.4343842
121	0x3e9af04f	0.30261466
122	0xbf48bdd4	-0.78414655
123	0x3f348579	0.70516163
124	0xbd3415d5	-0.043966133
125	0xbf08a5e7	-0.53378147
126	0x3f02dc58	0.5111747
127	0xbf0a82f2	-0.54106057
128	0xbec83cc3	-0.39108858
129	0xbe2ec697	-0.17067944
130	0x3e38c702	0.18044665
131	0x3d0682b3	0.03283949
132	0x3e5b3ed3	0.21410684
133	0x34c7eb21	3.7237717e-07
134	0x3e993472	0.29922825
135	0xbb3cd928	-0.0028815959
136	0x3e6969a5	0.22794206
137	0xbe49ed55	-0.19719441
138	0xbce273b1	-0.027643057
139	0xbda404f8	-0.0800876
140	0xbf34070e	-0.70323265
141	0x3f3270b3	0.69703215
142	0xbf145b6e	-0.5795201
143	0x3f44d6aa	0.7689005
144	0x3e8190c3	0.25305757
145	0xbf18c67d	-0.5967787
146	0x3f4ef21d	0.80838186
147	0x3e8dc4aa	0.27689105
148	0xbf41e5d1	-0.75741297
149	0xbe7f8ef3	-0.24956875
150	0x3f340d46	0.70332754
151	0xbcd296f0	-0.025706738
152	0xbf1fe603	-0.62460345
153	0x3ebc4eb2	0.3677879
154	0x3b4adc93	0.0030954226
155	0x3f3b8942	0.73256314
156	0x3e8136f7	0.25237247
157	0x3713ff3d	8.82131e-06
158	0x3ee8df2f	0.45482776
159	0x3f23e681	0.64023596
160	0x3f123ebc	0.57126975
161	0xbe97e771	-0.29668763
162	0x3d9361a6	0.07196359
163	0x3eff94fc	0.49918354
164	0xbe4c2bb0	-0.1993854
165	0xbdf885bc	-0.12134883
166	0xb7b05ecd	-2.102498e-05
167	0x3d13757f	0.036000725
168	0x3f26ff48	0.6523328
169	0x3e48d8c3	0.19613938
170	0xb42ee01a	-1.628654e-07
171	0x3f2cadcf	0.6745271
172	0x3ebaf61e	0.36515898
173	0x3f1fb3d9	0.623838
174	0x3e403ed9	0.18773974
175	0x3ee157f5	0.44012418
176	0x3f3babe0	0.73309135
177	0x3ea05620	0.31315708
178	0x3f08bea6	0.53415906
179	0xbcc84850	-0.024448544
180	0xbc97cb40	-0.018529534
181	0x3eaf9374	0.34292185
182	0x3f0e049c	0.55475783
183	0xbe268b15	-0.16263993
184	0x3f24b605	0.6434024
185	0x3f15d648	0.5853009
186	0x36ae10d2	5.1875622e-06
187	0x3f44dfb0	0.7690382
188	0x3d90f24d	0.07077465
189	0xbc362995	-0.011118312
190	0xbf18c514	-0.5967572
191	0xbed6c289	-0.41945294
192	0xbf2d47db	-0.6768777
193	0x3ece8e0e	0.40342754
194	0x3e98a2ac	0.2981161
195	0x3eaf4430	0.3423171
196	0x3f2779f8	0.65420485
197	0xbf4926b0	-0.7857466
198	0x3dfb659b	0.12275239
199	0xbf093c47	-0.536076
200	0x3df8908b	0.121369444
201	0x3f422e85	0.75852233
202	0x3f0eb94c	0.5575149
203	0x346aeb59	2.1878567e-07
204	0xbeedf2a2	-0.46474177
205	0xbe4d6ef1	-0.20061852
206	0xbec2ac12	-0.38021904
207	0x3ed550e0	0.41663265
208	0xbec85b73	-0.3913227
209	0xbf2c224e	-0.67239845
210	0xbc19e127	-0.009392059
211	0xbdb4422b	-0.08801683
212	0x3ca844a2	0.02054054
213	0x3ee709fe	0.4512481
214	0x3e1fb765	0.15597303
215	0x3e75ac89	0.23991598
216	0x3d5de436	0.054172717
217	0xbeb9e6cd	-0.363089
218	0xbf36efbb	-0.7145955
219	0x3d8656ee	0.06559549
220	0xbd6cc0ff	-0.057801243
221	0x3ec2a259	0.38014486
222	0xbf00effc	-0.5036619
223	0xbecdb153	-0.4017435
224	0xbe07f36b	-0.1327645
225	0xbebdb1d1	-0.37049726
226	0xbf30eb84	-0.6910937
227	0xbf1a81a5	-0.6035407
228	0xbee28a46	-0.4424612
229	0x3286c65e	1.568986e-08
230	0x3f4d0aaa	0.800944
231	0x3ea84af1	0.32869676
232	0xbe22403e	-0.15844819
233	0x3e4316cd	0.19051667
234	0xbeaa5f66	-0.33275908
235	0xbece9748	-0.40349793
236	0xbf0ea1c9	-0.55715615
237	0x3ed25ad3	0.41084918
238	0x3f3cca8b	0.73746556
239	0x3ecbb453	0.39786014
240	0x3ebe1a56	0.37129468
241	0xbd3fd180	-0.046830654
242	0x3f3ef276	0.74588716
243	0x3573a7e6	9.076888e-07
244	0xbf1d5d37	-0.6147036
245	0xbdadb599	-0.08481903
246	0xbe60996c	-0.21933526
247	0xbee600f1	-0.44922593
248	0xbe5d38f4	-0.21603757
249	0x3c14bf4e	0.009078814
250	0x3f4d9276	0.80301607
251	0xbf04d3fc	-0.5188596
252	0xbddbcdcc	-0.10732612
253	0x3f07bb52	0.53020203
254	0xb32e7152	-4.0615596e-08
255	0x3eb169f5	0.3465115

state_embedding.move_type_embedding.embedding.weight f4 [20, 8]
0	0xbe36fb8f	-0.178694
1	0x3ec8f988	0.39252877
2	0x3d484695	0.048895437
3	0xb6ba04e1	-5.5438e-06
4	0x3e8b38ba	0.27191716
5	0x3e9e5c01	0.30929568
6	0x3b8314c1	0.004000277
7	0xbd765915	-0.06014355
8	0xbeea0973	-0.45710334
9	0xbea7cae0	-0.3277197
10	0xbeb4791e	-0.35248655
11	0xb9c2c017	-0.00037145682
12	0xbf1e46c2	-0.6182672
13	0x3def0d9c	0.11672518
14	0xbddc758d	-0.107646085
15	0x3e973fd0	0.29540873
16	0xbee46313	-0.44606838
17	0xbf253731	-0.6453734
18	0xb48872ce	-2.5415505e-07
19	0xbea47a37	-0.32124493
20	0x3f11df3c	0.56981254
21	0x3f385643	0.72006625
22	0xbf294a48	-0.6612897
23	0x3c8ce2f0	0.017198056
24	0x3f347ec5	0.70505935
25	0x3e6d200d	0.23156758
26	0x3f26a677	0.65097755
27	0xbecd801f	-0.4013681
28	0xbee048cc	-0.4380554
29	0xbec54626	-0.38530082
30	0x3c784b26	0.0151546355
31	0x3e9136db	0.28362164
32	0x3df209db	0.11818286
33	0x3f2016e3	0.6253492
34	0xbca8f3fe	-0.020624157
35	0x3eaeac9c	0.34116066
36	0x3e9751ea	0.29554683
37	0x3ee29fca	0.44262534
38	0x3ef78e30	0.48350668
39	0x35969a16	1.1220716e-06
40	0x3df9349e	0.12168239
41	0x3e71dec6	0.23620138
42	0x3e4cbbe0	0.19993544
43	0xbe97828a	-0.2959178
44	0x3e4c063e	0.19924256
45	0xbe6432ca	-0.22285
46	0xbd88d657	-0.06681507
47	0x3d02a8a7	0.03189912
48	0xbeb45c60	-0.35226727
49	0xbeb8fa37	-0.361284
50	0x35759c70	9.149726e-07
51	0xbd165f03	-0.036711704
52	0x3d8f17a3	0.0698693
53	0x3b985898	0.004649233
54	0xbe8014b7	-0.25015804
55	0xbe44b7f7	-0.19210802
56	0xbd9f1630	-0.07767904
57	0xbe0deb0f	-0.13859199
58	0x3e1d1292	0.15339115
59	0x3d593b1e	0.053034894
60	0x35e84768	1.7306129e-06
61	0x3eb12398	0.34597468
62	0x3f3c833a	0.73637736
63	0xb6bc31c8	-5.608632e-06
64	0x3505c6eb	4.9835825e-07
65	0xbe1cef92	-0.15325764
66	0x3d97dc0f	0.0741502
67	0xbe9a55cc	-0.30143583
68	0x3ddf46b5	0.10902158
69	0xbea6880c	-0.3252567
70	0x3ea31e1b	0.31858906
71	0xbcced6f5	-0.025248984
72	0xba9c332d	-0.0011917107
73	0x3b7f9486	0.003899844
74	0x3ec3657c	0.38163364
75	0x3dc2388a	0.0948344
76	0x3e4465d4	0.1917947
77	0x361dbe10	2.3505454e-06
78	0xbe492872	-0.19644335
79	0x3ec2890d	0.37995186
80	0x3f0d6465	0.55231315
81	0xbeeca972	-0.46223027
82	0xbd5e803b	-0.05432151
83	0x3f4a0f20	0.7892933
84	0xbf456dfc	-0.7712095
85	0xb481fcee	-2.4212153e-07
86	0x3ec80fd6	0.39074582
87	0xbf4370f5	-0.76344234
88	0xbe3ea5b0	-0.18617892
89	0xbe0e3b86	-0.13889894
90	0xbdd4b431	-0.10385931
91	0xbe6ba12d	-0.23010702
92	0x3da9a151	0.08282722
93	0x3e071775	0.13192542
94	0xbe7f04cc	-0.24904174
95	0xbe8d5689	-0.27605084
96	0x3df5175f	0.11967348
97	0xb749191a	-1.1986378e-05
98	0xbe2f73f3	-0.17134075
99	0x3d667177	0.056260552
100	0x3e7d8166	0.24756393
101	0x3ea7f0b3	0.32800826
102	0x3e962763	0.29326925
103	0x3e02fdc3	0.12792115
104	0xbec497cd	-0.38397065
105	0xbbf41c41	-0.007449657
106	0xbe28ab39	-0.16471566
107	0xbdb40733	-0.08790436
108	0xbe4fe4a5	-0.20302065
109	0x3c98ed24	0.018667765
110	0xbe061a86	-0.13096055
111	0xbe9a89f5	-0.30183378
112	0xbdb6e290	-0.08929932
113	0x3ca65dc8	0.02030839
114	0x3e13e44f	0.14442562
115	0x3e14fbd7	0.14549194
116	0xbd061a57	-0.032739963
117	0xbe8f7bdc	-0.28024185
118	0xbe91b6ea	-0.28459865
119	0x3ea73b9c	0.32662666
120	0x3db99ad6	0.09062736
121	0x3e5019f6	0.20322403
122	0xb572ff69	-9.0523696e-07
123	0xbd8204f6	-0.063486025
124	0xbeab9aa9	-0.33516434
125	0xbe3c7ed6	-0.18407759
126	0xbeb0e709	-0.34551266
127	0x3dc9825d	0.09839318
128	0xbede4a52	-0.43416077
129	0x35973cec	1.1268107e-06
130	0x3ea1f33c	0.31630886
131	0x3de8d611	0.11368955
132	0x3b805cb4	0.003917301
133	0xbe5c5b46	-0.21519193
134	0xbda138a4	-0.078721315
135	0x3dc5997e	0.09648417
136	0x3d2ccd44	0.042187944
137	0x3f4c5b7e	0.79827106
138	0xbe929d75	-0.28635755
139	0xbc89b41c	-0.016809516
140	0xbed378ac	-0.41303003
141	0x3ea2f6e0	0.31828976
142	0xbde61b16	-0.11235635
143	0x3d57c8ec	0.05268185
144	0x358d15de	1.0511683e-06
145	0xbe92f08c	-0.28699148
146	0x3e28fab3	0.16501884
147	0xbba665ef	-0.0050780694
148	0x3eefd863	0.46844777
149	0xb698b329	-4.55081e-06
150	0xbe848fd5	-0.25890985
151	0x3d03e220	0.03219807
152	0x3a51a411	0.0007997165
153	0xbe49e006	-0.19714364
154	0xbe2f3be4	-0.1711269
155	0x3ec5e277	0.3864934
156	0xbbf6814e	-0.0075227385
157	0x3ebf74a9	0.37393692
158	0x3da6e31e	0.08148788
159	0x3ccdd6d2	0.025126848

state_embedding.ability_embedding.embedding.weight f4 [261, 4]
0	0xbe8ddc88	-0.27707314
1	0xbe6f34e2	-0.23360017
2	0x3e55ff6c	0.20898217
3	0xbf182f99	-0.5944763
4	0x3c801802	0.015636448
5	0xbec0c879	-0.37652948
6	0x3dacec1a	0.0844347
7	0xbeb4376d	-0.35198537
8	0x3b801555	0.003908793
9	0xbe226926	-0.15860423
10	0xbc21dbd4	-0.009879071
11	0x3f19598b	0.59902257
12	0x3e327b7a	0.17429915
13	0x38f94d05	0.00011887591
14	0xbf131be7	-0.5746445
15	0x3dd9fc38	0.1064381
16	0x3f329152	0.6975299
17	0x3e764e4d	0.24053307
18	0xbedabc25	-0.42721668
19	0x3f0134ab	0.5047099
20	0xbd2d1d35	-0.042264182
21	0xbebdb945	-0.37055412
22	0xbeb4a1ad	-0.352796
23	0x3eba4988	0.36384225
24	0x3d4f8c3c	0.050670847
25	0x3f3e5411	0.74347025
26	0xbee7ec41	-0.45297435
27	0xbe79750a	-0.24361053
28	0xbd507459	-0.050892208
29	0x3e98079a	0.296933
30	0x3efc9a3a	0.49336416
31	0x3efb82f6	0.49123353
32	0x3f45939f	0.77178377
33	0xbd953e20	-0.0728724
34	0xba6e281e	-0.00090849574
35	0x3e5b33f1	0.21406533
36	0x3f0b555b	0.5442712
37	0xbf06c2eb	-0.5264117
38	0xb5c2e818	-1.4521675e-06
39	0x3f3ef844	0.74597573
40	0xbf2fad8f	-0.68624204
41	0x3ba28a81	0.0049603586
42	0xbe7bb289	-0.24579825
43	0xbc90225b	-0.017594507
44	0xbe565ab5	-0.2093304
45	0xbeda6f93	-0.4266325
46	0x3e16bc8b	0.14720361
47	0xbedb9215	-0.4288489
48	0xbf17be66	-0.592749
49	0xbcbd7590	-0.023127347
50	0xb3f40876	-1.13636744e-07
51	0xbca74a3c	-0.02042114
52	0x32af31e8	2.0395376e-08
53	0x3498763c	2.8398233e-07
54	0xbf2717fd	-0.6527098
55	0x3f45ed7e	0.7731551
56	0x3dc01215	0.09378449
57	0xbe9b7854	-0.3036524
58	0xbed6c12e	-0.4194426
59	0x35089962	5.088715e-07
60	0xbf2615bd	-0.6487692
61	0x3f2764c7	0.6538815
62	0x3f0cb429	0.549624
63	0xbf24fad6	-0.64445245
64	0xbea225ae	-0.31669372
65	0x3d15d774	0.036582425
66	0x3e5a8d9e	0.21343085
67	0xb5dd09c2	-1.6468623e-06
68	0x3e38468f	0.17995666
69	0xb8cb2930	-9.687466e-05
70	0xbe936da4	-0.28794587
71	0xbeac5103	-0.33655557
72	0x3f0feaf9	0.56217915
73	0x3d32bcb1	0.04363698
74	0xb56382f1	-8.4754635e-07
75	0x3ea4379d	0.3207368
76	0xbf2bd8ec	-0.6712787
77	0x3eff89af	0.49909732
78	0x3ee5c377	0.4487569
79	0x3589a725	1.0255941e-06
80	0xbef202cd	-0.47267762
81	0xb6177a6b	-2.257201e-06
82	0xbecc1b05	-0.39864364
83	0x3f1090a6	0.56470716
84	0xbcb9613e	-0.022629377
85	0x3ea380ff	0.31934354
86	0x3da310c7	0.079621844
87	0x3de0141b	0.10941335
88	0x3e0d09d2	0.13773277
89	0xbec7d13c	-0.3902682
90	0xb47a90e4	-2.3335775e-07
91	0xbeab344e	-0.33438343
92	0x3f19f98e	0.60146415
93	0x3f1ef595	0.6209348
94	0x3e5b400b	0.21411149
95	0xbe404bda	-0.18778935
96	0xbdfca5f0	-0.123363376
97	0x3e9f71b3	0.31141433
98	0x3f0e8cd9	0.55683666
99	0x37b8c9a6	2.202841e-05
100	0x3db99ec2	0.09063484
101	0x3f4dc095	0.8037198
102	0x3e21a7a7	0.1578661
103	0x3daeb6df	0.08530974
104	0x3e206dad	0.15666838
105	0x3ddd7996	0.10814206
106	0xbf223d11	-0.6337443
107	0x3d8edf4e	0.06976186
108	0x3f172730	0.5904417
109	0x3f1dbd54	0.61617017
110	0x39429a13	0.00018558679
111	0x3abd4e13	0.0014442824
112	0xbea79124	-0.3272792
113	0x3c2ce7f0	0.010553345
114	0xbeb2b996	-0.34907216
115	0x3de5e671	0.11225594
116	0x3f4d68af	0.8023786
117	0x37ca58c7	2.4121617e-05
118	0xbf3938ed	-0.72352487
119	0x3c570999	0.013124847
120	0x37adb086	2.0705407e-05
121	0xb55a98fa	-8.143394e-07
122	0xbf42eebd	-0.76145536
123	0xbf31780f	-0.6932382
124	0x3ce44157	0.027863188
125	0x3e69f6af	0.22848009
126	0x3da1e6e7	0.07905369
127	0x3e557c22	0.20848134
128	0xbc29f3dc	-0.010373082
129	0x3ef34390	0.47512484
130	0x3b42f77d	0.0029749565
131	0x3ca17b90	0.01971224
132	0x3ef60cfd	0.48056784
133	0x3d5b75a0	0.053578973
134	0xbf39d2d2	-0.7258731
135	0x3f409038	0.7522006
136	0xbea456be	-0.3209743
137	0x3ec15a8d	0.37764397
138	0xbf121d0d	-0.5707558
139	0xbe67d848	-0.22641098
140	0xbedc2bea	-0.43002254
141	0x3ec21b53	0.37911472
142	0xbf4c6227	-0.7983727
143	0xbebab770	-0.36468077
144	0xbe9e3dd0	-0.30906534
145	0xbd66b82d	-0.056327987
146	0xbf11f137	-0.5700869
147	0x3e22fd4c	0.15916938
148	0xba399a51	-0.0007080185
149	0x39121aba	0.00013933601
150	0xbf22e153	-0.6362507
151	0xb9f9eb82	-0.00047668448
152	0xbf153678	-0.5828624
153	0xb7ba770b	-2.2228362e-05
154	0x3e426fbb	0.18987934
155	0xbf1d0e3a	-0.61349833
156	0x3f283df3	0.65719527
157	0x3eb240be	0.3481502
158	0x3b8fa168	0.004383255
159	0xbf00ecbe	-0.5036124
160	0xbd2bb341	-0.041918997
161	0x3e9a25af	0.30106875
162	0xbd027bb8	-0.03185627
163	0x3e4be62b	0.19912021
164	0xbebb7626	-0.36613578
165	0xbf1cce4f	-0.612523
166	0x3f011e69	0.5043703
167	0xbd1ba8ad	-0.03800266
168	0x3f190031	0.5976592
169	0x35d8d0d8	1.6154036e-06
170	0x3e217e1c	0.15770763
171	0x3e59a731	0.21255185
172	0x3f235084	0.6379473
173	0xbe18735b	-0.14887755
174	0xbe937d42	-0.28806502
175	0x3d095b1f	0.033534165
176	0xbd11753a	-0.035512187
177	0x3f15696a	0.58363974
178	0x3c820ef5	0.015876273
179	0xbeb9e7d4	-0.36309683
180	0x3e1abb10	0.15110421
181	0x3e2312aa	0.15925089
182	0xbf066bb1	-0.52508074
183	0xbd9422f1	-0.07233227
184	0x3f17fc61	0.59369475
185	0x3f1f1c77	0.6215281
186	0xbeab5ee9	-0.33470848
187	0x3ed3f71f	0.41399476
188	0xbe3eee40	-0.18645573
189	0xbf3e7647	-0.74399227
190	0x3f48d3ab	0.7844798
191	0x3d170d0d	0.03687768
192	0x3e8226c1	0.25420192
193	0x3ea6be47	0.32567045
194	0x3ec2f5e4	0.38078225
195	0xbd913cab	-0.070916496
196	0x3f317b9d	0.69329244
197	0xbe453804	-0.1925965
198	0x3eaa2f6e	0.3323931
199	0x3f1f0b78	0.62126875
200	0x3f413ff6	0.7548822
201	0xbf4a9296	-0.7912992
202	0x3ebc1888	0.36737466
203	0xbebd6d37	-0.36997387
204	0x3432102d	1.6583427e-07
205	0x3e8baeda	0.2728184
206	0x3e1774a5	0.1479059
207	0x3f3fa7d5	0.74865466
208	0xbd8a9659	-0.06766958
209	0xbe38842c	-0.1801917
210	0x3f124dae	0.5714978
211	0xb5464115	-7.3855455e-07
212	0x3e56d1c8	0.20978463
213	0x3eda1ade	0.42598623
214	0x3f1ba8af	0.60804266
215	0x3c8dfd66	0.017332744
216	0xbd652354	-0.055941895
217	0x3f3014a6	0.68781507
218	0xbe367bce	-0.17820665
219	0xbd490f92	-0.049087115
220	0xbf3f312f	-0.74684423
221	0x36c4c2da	5.863939e-06
222	0xbf3953fd	-0.7239378
223	0xbeab52ca	-0.334616
224	0xbf1f09cc	-0.62124324
225	0xbe62c881	-0.22146799
226	0x3e04dedd	0.1297564
227	0xb91c4b19	-0.00014905295
228	0xbd7b9219	-0.061418626
229	0xbf08e446	-0.5347332
230	0xbd35e353	-0.044406246
231	0x3ea0a434	0.31375277
232	0xbecff9e7	-0.40620348
233	0x3f4626a8	0.77402735
234	0xb9902c19	-0.00027498676
235	0xbee0cf27	-0.43908045
236	0x3e0967a1	0.13418438
237	0x3d4b30a7	0.049606945
238	0x3b1a0720	0.0023502782
239	0xbe66d576	-0.22542366
240	0x3f0dba3f	0.55362314
241	0x3eed5fc1	0.46362117
242	0x3edc4ee8	0.4302895
243	0xbe7c56f9	-0.24642552
244	0xbe8d2721	-0.27568915
245	0x3f3c6bf0	0.736022
246	0x3f1ea28a	0.61966765
247	0x3f4119aa	0.75429785
248	0xbf2946f0	-0.6612387
249	0x3e18c7e5	0.14920004
250	0xbea34fa2	-0.31896693
251	0xbeabe18a	-0.3357051
252	0x3f133962	0.57509434
253	0x3e04c5e2	0.12966111
254	0xbf397ed4	-0.7245915
255	0x3f0dfb2f	0.554614

state_embedding.item_embedding.embedding.weight f4 [1257, 4]
0	0xbe888866	-0.26666564
1	0xbed22fc3	-0.41052064
2	0x3e11b3cc	0.14228743
3	0xbee6cdd5	-0.45078912
4	0x374516f0	1.1747456e-05
5	0x3ed14946	0.40876216
6	0xbe7ec1c8	-0.24878609
7	0xbeff0b5d	-0.49813357
8	0xbe5cac5e	-0.21550128
9	0x3da7f27e	0.082005486
10	0xbf09e91f	-0.5387134
11	0x3be7039c	0.007049991
12	0x3efac128	0.48975492
13	0x3e8b5325	0.27211872
14	0xbc114f3c	-0.008868989
15	0x3f172849	0.59045845
16	0xbbe8c802	-0.007103921
17	0xbe42cfab	-0.19024532
18	0x3570bced	8.968189e-07
19	0x3e3f3600	0.18672943
20	0x3e4adc38	0.1981057
21	0xbf3ca1e0	-0.736845
22	0xbeab5c3a	-0.334688
23	0x3ed4dcbc	0.41574657
24	0xbe044ead	-0.12920637
25	0x3f11f10c	0.57008433
26	0xbf3ab43c	-0.72931266
27	0x3f32b75a	0.6981102
28	0xbdf542d2	-0.119756356
29	0xbeb0a1c8	-0.3449843
30	0x3f4b3c7b	0.7938916
31	0x3f0da25d	0.5532587
32	0xbf0ff49e	-0.5623263
33	0x3ea117b4	0.31463397
34	0x3d3b1384	0.04567291
35	0xbbcf4a34	-0.0063259844
36	0xbe9f86bb	-0.3115748
37	0xb5772030	-9.206151e-07
38	0xb34489c6	-4.576011e-08
39	0x3e05f369	0.13081135
40	0x3d950a3e	0.07277344
41	0xbebaf06e	-0.36511558
42	0x3be4b7ac	0.006979903
43	0xbf1fa1e4	-0.623564
44	0x3d699f86	0.0570369
45	0x3f40e307	0.75346416
46	0xbe622314	-0.22083694
47	0x3f11f502	0.5701448
48	0x3d5d3848	0.054008752
49	0x3e34f758	0.17672479
50	0x3ecfe300	0.40602875
51	0x3ea7f704	0.32805645
52	0x3f0c8e03	0.5490419
53	0xbde8cf7b	-0.11367699
54	0x3d9d6fa9	0.07687313
55	0xbf005b5a	-0.5013939
56	0x3e11732a	0.14204088
57	0xbf3fabaf	-0.74871343
58	0x3f0326da	0.5123116
59	0x3ebd6a03	0.36994943
60	0xbe69a81c	-0.22818035
61	0x3f3930ba	0.72339976
62	0x3c9a881d	0.018863732
63	0xbeb7f807	-0.35931417
64	0x3f210e08	0.62912035
65	0x3e199005	0.14996345
66	0xbf1405d6	-0.57821405
67	0x3ee4356d	0.4457201
68	0xb4e69675	-4.295031e-07
69	0x3e8ca03c	0.27466
70	0xbc90bff2	-0.017669652
71	0x3c140618	0.009034656
72	0xb45c52c0	-2.0519201e-07
73	0x3e08848c	0.13331813
74	0xbdbce1a6	-0.092227265
75	0x3f00b761	0.50279814
76	0xbef66ffd	-0.48132315
77	0x3d821df4	0.06353369
78	0x3d8eed4f	0.06978857
79	0x3f18319c	0.594507
80	0x3f23eae8	0.64030313
81	0x3e871559	0.26383474
82	0xbf1b8dfd	-0.6076353
83	0x3ef1a909	0.47199276
84	0x3f0d8d73	0.5529396
85	0xbf219226	-0.6311363
86	0xbd8c1196	-0.06839292
87	0xbf125850	-0.57166004
88	0x3f208bda	0.62713397
89	0x3f175424	0.59112763
90	0xb2bf0b62	-2.2240503e-08
91	0x3e1b9c5e	0.15196368
92	0x3d94b315	0.0726072
93	0x3cee33c2	0.029077414
94	0x3f04118b	0.5158927
95	0x3e65967b	0.22420685
96	0x3f3316b9	0.6995655
97	0x3e7489e2	0.23880723
98	0xb4bd3228	-3.5240487e-07
99	0x3d1f01e8	0.038820177
100	0x365ee395	3.3213048e-06
101	0x3ead012c	0.33789957
102	0x3d311904	0.043236747
103	0xba1266ac	-0.00055847573
104	0x3ee88a1d	0.45417872
105	0xbf37c82b	-0.7178981
106	0x3dc4987b	0.09599396
107	0x3dc40f16	0.0957319
108	0xb5a237f1	-1.2086222e-06
109	0x3eb6f641	0.35734752
110	0xb44aec5c	-1.8898703e-07
111	0x3cea0ba8	0.028570011
112	0xbee6774a	-0.45012885
113	0x3f069f16	0.52586496
114	0x3ef4a64f	0.47783133
115	0x3ee0cbb9	0.43905428
116	0x3db213a5	0.08695153
117	0x3f4a4364	0.7900908
118	0x3f13a95d	0.576803
119	0x3e3c472d	0.18386526
120	0x3efc5430	0.4928298
121	0x3d41059d	0.047124494
122	0xbd5999d6	-0.053125225
123	0xbed67b57	-0.41890976
124	0xbdc21836	-0.09477274
125	0xbf0c187b	-0.54724854
126	0xbce738af	-0.028225271
127	0xbf4e73c3	-0.8064539
128	0xbdf98244	-0.12183049
129	0x3f256465	0.64606315
130	0xbe8f8555	-0.28031412
131	0x3da305f2	0.07960118
132	0x3e21fb1e	0.1581845
133	0xbcd0521c	-0.025429778
134	0xbee4c1bc	-0.44679058
135	0xbea1f66d	-0.3163332
136	0x3f085c7b	0.53266114
137	0x3e842664	0.2581054
138	0xbf2dcc5a	-0.6788994
139	0x3d608c4b	0.054821294
140	0xbf2bd6c4	-0.6712458
141	0xbf31481d	-0.6925066
142	0x3e2f7d43	0.17137627
143	0x3528a85e	6.2829884e-07
144	0xbc3cf2c2	-0.011532487
145	0xbe978895	-0.2959639
146	0xbdb21561	-0.08695484
147	0xbf41b39a	-0.75664675
148	0x3effec57	0.49985
149	0xbec64718	-0.38726115
150	0x3e070158	0.13184106
151	0x3d2c0916	0.042000853
152	0x3f3f8f98	0.7482848
153	0xbf085fd2	-0.5327121
154	0xbe0c8292	-0.13721684
155	0xbf3831d7	-0.7195105
156	0xbdd9b844	-0.10630849
157	0x34fedb78	4.747087e-07
158	0x3ec5631c	0.38552177
159	0x3f33e32a	0.702685
160	0xbd25e577	-0.040502038
161	0xbbf71054	-0.0075397883
162	0xbea7aa66	-0.3274719
163	0xb7cadb50	-2.4182402e-05
164	0xb39abcfc	-7.20556e-08
165	0xbf25a001	-0.6469727
166	0xbf486499	-0.782785
167	0xba5498fd	-0.0008109955
168	0x3efc55b0	0.49284124
169	0x3f23eab2	0.6402999
170	0x3e0278ac	0.12741345
171	0xbec0ee34	-0.37681735
172	0x365e1e71	3.3098297e-06
173	0x3e28f73e	0.16500565
174	0x3f1cc7a9	0.6124216
175	0xbe887273	-0.26649818
176	0xbefdce5a	-0.49571496
177	0xbe711376	-0.2354258
178	0xbf0abe1a	-0.5419632
179	0xbe73f2f7	-0.23823152
180	0x3d7afb54	0.06127484
181	0xbf12cb90	-0.5734186
182	0xbe000105	-0.12500389
183	0x3e8f4c72	0.2798801
184	0x3ebbb0d7	0.36658356
185	0x3f285d39	0.65767246
186	0x3f33d1a8	0.70241785
187	0xbec74cad	-0.38925686
188	0xbf4b9cd8	-0.795362
189	0x3ea1007f	0.3144569
190	0xbf0e7efb	-0.55662507
191	0x3f36f83b	0.7147252
192	0x3e87e06c	0.26538408
193	0x3f3f6c93	0.74775046
194	0xbbe13cb5	-0.006873692
195	0x3dfdc3fe	0.12390898
196	0xbe86d397	-0.26333305
197	0xbe433684	-0.19063765
198	0x3e90b262	0.28261095
199	0x3ecfff88	0.40624642
200	0x3474c176	2.2794651e-07
201	0x3c15f1f1	0.009151922
202	0x37c89b03	2.391404e-05
203	0x3eac7bac	0.33688104
204	0xb43763f4	-1.7079566e-07
205	0xb7b22521	-2.1236543e-05
206	0xbef83295	-0.4847609
207	0x3c9500c0	0.018188834
208	0x3f4bd941	0.7962838
209	0xbf190005	-0.59765655
210	0x3d49818f	0.049195822
211	0x3ec00393	0.37502727
212	0xbae3c8b0	-0.0017378535
213	0xbf3e2751	-0.7427874
214	0xbf3ee43c	-0.7456701
215	0x3e47df75	0.19518836
216	0xbec5ec14	-0.38656676
217	0x3f1b4536	0.6065248
218	0xbf0fa5c7	-0.5611233
219	0x3f074289	0.528359
220	0xbea48af6	-0.3213727
221	0xbe234e79	-0.15947904
222	0xbea2ad1d	-0.317727
223	0xbf4eb49a	-0.80744326
224	0x3f325f31	0.696765
225	0xbb19602f	-0.0023403277
226	0xbf19863e	-0.5997046
227	0x3ec859db	0.39131054
228	0x3f280b40	0.65642166
229	0x3da8895c	0.08229324
230	0xbbc4ad04	-0.0060020704
231	0xbe271667	-0.1631714
232	0x3e2738ad	0.16330214
233	0xbf14f151	-0.5818072
234	0x3db555cc	0.08854255
235	0x3bb04ac1	0.005380005
236	0xbcdb4ee1	-0.02677101
237	0x3e9257a5	0.28582492
238	0xbead49e4	-0.33845437
239	0x3f1f57ee	0.62243545
240	0x3e02bedf	0.12768124
241	0xbf1e1b60	-0.6176052
242	0xbec39877	-0.3820226
243	0x3f4834b7	0.78205436
244	0xb6d388d6	-6.30422e-06
245	0xbead567a	-0.3385504
246	0x3e53b257	0.206735
247	0x3f32a0ae	0.6977643
248	0x3871ac74	5.7619487e-05
249	0xbf26744f	-0.6502122
250	0x3e899815	0.26873842
251	0x3f208714	0.6270611
252	0x3ed3c5f6	0.4136197
253	0x3f4b4fa1	0.7941838
254	0x3e8c2072	0.27368504
255	0x3e95995d	0.2921857

state_embedding.condition_embedding.embedding.weight f4 [8, 4]
0	0x3efa1e06	0.4885103
1	0x344b13c2	1.8913036e-07
2	0xb98e35af	-0.00027124348
3	0xbdf6e89b	-0.12056085
4	0x3eb77225	0.35829273
5	0xbec39c67	-0.38205263
6	0x3ef17e7c	0.47166812
7	0x3d44646e	0.04794734
8	0x3c746079	0.014915579
9	0x3e2b39e0	0.16721296
10	0xbe0c07a7	-0.13674794
11	0x3e993f39	0.29931048
12	0xb68a6765	-4.124757e-06
13	0x3e2d9684	0.16951948
14	0xbed949ee	-0.42439216
15	0xbf066f70	-0.5251379
16	0xbe1fbfdf	-0.15600537
17	0xb6c214b2	-5.78406e-06
18	0x3d30a6e7	0.04312792
19	0x3b16ca04	0.0023008594
20	0x3f0172bb	0.5056569
21	0x3c8f16df	0.01746696
22	0xbe459756	-0.19296011
23	0x3d125073	0.035721254
24	0xbef0f0b4	-0.47058642
25	0xb5a4640a	-1.2248067e-06
26	0x3ee2916f	0.44251582
27	0xbe76d539	-0.24104775
28	0xbcfe7c16	-0.031065028
29	0x3e9112be	0.28334612
30	0x3e9e9d69	0.3097947
31	0x3f0a6e19	0.54074246

state_embedding.weather_embedding.embedding.weight f4 [9, 4]
0	0xbeb6e964	-0.35724938
1	0xbf21b473	-0.6316597
2	0xbe9335e6	-0.2875206
3	0xb58b2060	-1.0365729e-06
4	0xbdd625c8	-0.10456425
5	0x3d33679d	0.043799985
6	0xbf1ff717	-0.62486404
7	0xbf294bd3	-0.66131324
8	0x3f037d54	0.5136311
9	0x3e6c1525	0.23054941
10	0xbd9265d3	-0.07148328
11	0x3eeaf38c	0.45888937
12	0x3f2217a7	0.6331734
13	0xbb62066a	-0.0034488686
14	0xbe99de3f	-0.30052373
15	0x3dd32079	0.10308928
16	0xbe0f6dc6	-0.14006719
17	0x3ca5fb58	0.020261452
18	0xbe932eb9	-0.28746584
19	0xbf2c5bbd	-0.6732748
20	0xbf221633	-0.63315123
21	0xbf18f4c7	-0.597485
22	0xbc5b55fd	-0.0133872
23	0x3aa1ad33	0.0012334943
24	0x3f10bb4e	0.56535804
25	0xbe143fd0	-0.14477468
26	0xbee9ce22	-0.4566508
27	0xbc55883b	-0.013032968
28	0xbf315872	-0.6927558
29	0x3f054236	0.52054155
30	0x3f0e1042	0.5549356
31	0xbf343fc0	-0.70409775
32	0xbf398b6c	-0.72478366
33	0xbf49a9af	-0.7877454
34	0x3ed7dd9f	0.4216127
35	0xbf253c3c	-0.64545035

state_embedding.alive_embedding.embedding.weight f4 [2, 4]
0	0xbe5711ab	-0.21002834
1	0x3e26d8e4	0.16293675
2	0xbee6bb8d	-0.45064965
3	0xbeb2f4b2	-0.34952313
4	0xbeb05273	-0.34437904
5	0xbe0a9d5e	-0.13536593
6	0x3f160190	0.58596134
7	0x3e2185d4	0.15773708

state_embedding.disabled_embedding.embedding.weight f4 [2, 4]
0	0xba20491c	-0.000611441
1	0xbe28ad05	-0.16472252
2	0x3e970cca	0.29501945
3	0x3d68aa9e	0.05680334
4	0xbe4b9211	-0.19879939
5	0xbe0d4dc2	-0.13799194
6	0xbeab7eec	-0.3349527
7	0x3f0506b0	0.5196333

state_embedding.spikes_embedding.embedding.weight f4 [4, 4]
0	0x3f0ebafd	0.5575407
1	0x3ed92383	0.42409906
2	0x3eb89512	0.36051232
3	0xbe5d07bc	-0.21584982
4	0x3efc9024	0.4932872
5	0xb34a538f	-4.7107786e-08
6	0x3f07776f	0.52916616
7	0xbdbdb250	-0.09262526
8	0x3f27a0fe	0.6548003
9	0xbf2dcb1c	-0.67888045
10	0x3f2e453b	0.6807439
11	0xbe935663	-0.28776845
12	0x3f03616f	0.51320547
13	0x3eb1ca8d	0.34724846
14	0xbbe544e5	-0.0069967383
15	0xbf131fa7	-0.5747017

state_embedding.spikesopp_embedding.embedding.weight f4 [4, 4]
0	0xbedcaf4c	-0.4310249
1	0xbf08ac34	-0.5338776
2	0x3ede3aad	0.4340414
3	0x3ebc93d2	0.36831528
4	0xbda0aa41	-0.07844973
5	0xbf24973a	-0.64293253
6	0x3c693e11	0.014235989
7	0x3f210932	0.62904656
8	0xbe189181	-0.14899255
9	0xbf0c990a	-0.5492102
10	0xbe4a7795	-0.1977218
11	0xbf1b125b	-0.60574883
12	0xbd9f647b	-0.07782837
13	0x3e72dc94	0.23716956
14	0xbeffae23	-0.49937543
15	0x3e21af57	0.15789543

state_embedding.toxicspikes_embedding.embedding.weight f4 [3, 4]
0	0xbf4ca2b6	-0.7993578
1	0xbe8a902e	-0.27063125
2	0xbe921b40	-0.28536415
3	0xbe2c6b69	-0.16837849
4	0xbf299162	-0.6623746
5	0xb896dd14	-7.1937364e-05
6	0xbf09e650	-0.53867054
7	0x3efdc143	0.4956151
8	0x3e8972b4	0.26845324
9	0xbb621853	-0.0034499362
10	0x340c2b9f	1.3054385e-07
11	0xbea99602	-0.3312226

state_embedding.toxicspikesopp_embedding.embedding.weight f4 [3, 4]
0	0xbf489a02	-0.7836
1	0x3ebc0d31	0.36728814
2	0x3e8fc57b	0.28080353
3	0x3e2ba474	0.16761953
4	0x3f11c53d	0.56941587
5	0xbec0643a	-0.37576467
6	0x3e476630	0.19472575
7	0xbe80793e	-0.250925
8	0xbf1981a1	-0.59963423
9	0x3e39218b	0.18079202
10	0xbec1006f	-0.37695643
11	0xb6cb6e02	-6.062678e-06

state_embedding.fieldeffect_embeddings.0.embedding.weight f4 [2, 4]
0	0xbec097b2	-0.37615734
1	0xbe647cb9	-0.22313203
2	0x3dd1f0c3	0.10251
3	0x3f4d06ff	0.800888
4	0x3dc88fc4	0.09793046
5	0x3204ebdc	7.7370395e-09
6	0xbef9057a	-0.4863699
7	0xbf37dbc9	-0.7181974

state_embedding.fieldeffect_embeddings.1.embedding.weight f4 [2, 4]
0	0x3e18324e	0.1486294
1	0xbf2d24d4	-0.6763432
2	0xbf03eb06	-0.5153049
3	0x3e9569b3	0.29182205
4	0xbf35a968	-0.7096162
5	0x3d1eafd5	0.038741905
6	0x3c80f8ff	0.01574373
7	0xbf10bbc8	-0.5653653

state_embedding.fieldeffect_embeddings.2.embedding.weight f4 [2, 4]
0	0x3f15bd0a	0.58491576
1	0xbe2cb47c	-0.16865724
2	0x3e0b0d53	0.13579302
3	0xbddfe919	-0.10933132
4	0xbebc6a66	-0.36799926
5	0xbc8b87f1	-0.017032595
6	0xbdfccc0b	-0.123436056
7	0x3ee5b954	0.44867957

state_embedding.fieldeffect_embeddings.3.embedding.weight f4 [2, 4]
0	0x3e97ff0f	0.29686782
1	0x3e8e3ca1	0.2778063
2	0xbda27bfd	-0.07933805
3	0xbeb8fa84	-0.36128628
4	0xbe20b642	-0.15694526
5	0x3f1424c5	0.57868606
6	0xbe94f404	-0.2909242
7	0x38d36c76	0.000100814665

state_embedding.fieldeffect_embeddings.4.embedding.weight f4 [2, 4]
0	0x3edea3be	0.434843
1	0xbec51629	-0.3849347
2	0x3ea55eee	0.32298988
3	0xbf172646	-0.59042776
4	0x3f0f44be	0.5596427
5	0x3eac6964	0.33674157
6	0xbf4e1a93	-0.805093
7	0xbf30c2b5	-0.690471

state_embedding.fieldeffect_embeddings.5.embedding.weight f4 [2, 4]
0	0x3eb69449	0.35660008
1	0x3f24fcf1	0.6444846
2	0xbe3b26e0	-0.18276548
3	0x3e55675f	0.20840214
4	0x3d5b2b9d	0.05350839
5	0x3ef5c159	0.47999075
6	0x3cd0324b	0.025414607
7	0xbf3d3863	-0.73914164

state_embedding.fieldeffect_embeddings.6.embedding.weight f4 [2, 4]
0	0xbee39e6b	-0.444568
1	0x3ccf6fec	0.025321923
2	0xbdc82b2b	-0.09773859
3	0xbf46a5f5	-0.7759698
4	0x3ebd155f	0.36930367
5	0xbe3cba5c	-0.18430465
6	0x3e5203c2	0.20509246
7	0xbf0afed5	-0.5429509

state_embedding.fieldeffect_embeddings.7.embedding.weight f4 [2, 4]
0	0xbe7300d1	-0.2373078
1	0xbda09ce3	-0.07842424
2	0x3d57c93e	0.052682154
3	0x3eb9ebc5	0.3631269
4	0x3ef72328	0.4826901
5	0xbdce9d86	-0.10088639
6	0xbee4f74f	-0.4471993
7	0x3f0b4db8	0.54415464

state_embedding.fieldeffect_embeddings.8.embedding.weight f4 [2, 4]
0	0xbdce35ec	-0.100688785
1	0xbe9594ac	-0.2921499
2	0xbf13a53a	-0.5767399
3	0x3efbf2ab	0.49208578
4	0x3991640e	0.00027731102
5	0xb9badc9e	-0.00035641057
6	0x3eda420f	0.42628524
7	0x3d9bd5fc	0.07609174

state_embedding.fieldeffect_embeddings.9.embedding.weight f4 [2, 4]
0	0x3f0fd365	0.5618194
1	0xbeabb81c	-0.33538902
2	0x3f08c659	0.53427655
3	0x3e4d6657	0.20058571
4	0xbed53e99	-0.4164932
5	0x34c2bd4b	3.6273045e-07
6	0x3f491be0	0.7855816
7	0xbed0553d	-0.40690032

state_embedding.fieldeffect_embeddings.10.embedding.weight f4 [2, 4]
0	0xbe957f0f	-0.291985
1	0xbf017dd8	-0.5058265
2	0x3f08d1cd	0.5344513
3	0xbeb28754	-0.34868872
4	0xb663027a	-3.3827077e-06
5	0x3c1178c8	0.008878894
6	0xbf0464a3	-0.5171606
7	0xbf24841b	-0.64264077

state_embedding.fieldeffect_embeddings.11.embedding.weight f4 [2, 4]
0	0xbe36eb44	-0.17863184
1	0xbf12853e	-0.5723456
2	0xbef9e3e7	-0.48806688
3	0xbe89cb1d	-0.26912776
4	0xbf318885	-0.6934894
5	0x3a7b4c92	0.00095863
6	0xbf0ae4b3	-0.5425522
7	0x3e99a7f6	0.30010957

state_embedding.fieldeffect_embeddings.12.embedding.weight f4 [2, 4]
0	0x3eec76d3	0.46184406
1	0xbe8a8f77	-0.2706258
2	0x3e6cf0f7	0.23138796
3	0xbeeb1e7b	-0.45921692
4	0xbe948753	-0.29009494
5	0xbe9d7d71	-0.30759767
6	0x3f014ca1	0.5050755
7	0xbedf6e04	-0.43638623

state_embedding.fieldeffect_embeddings.13.embedding.weight f4 [2, 4]
0	0xbc13ee1b	-0.009028937
1	0x3f1a1988	0.6019521
2	0xbeaaa58a	-0.3332942
3	0xbf0ca464	-0.5493834
4	0x3f39187d	0.7230299
5	0xbf2dd6a5	-0.67905647
6	0xbe4dff4c	-0.2011692
7	0x3d84da18	0.064869106

state_embedding.fieldeffect_embeddings.14.embedding.weight f4 [2, 4]
0	0x3f1525eb	0.58260983
1	0x3cfaf44b	0.030634066
2	0x3f0ee720	0.5582142
3	0xbec64eda	-0.38732034
4	0xbf0df5cd	-0.5545319
5	0x3f087f82	0.5331956
6	0x3e0508d6	0.12991652
7	0xbe32541d	-0.17414899

state_embedding.fieldeffect_embeddings.15.embedding.weight f4 [2, 4]
0	0x3db5f53f	0.088846676
1	0xbde88e07	-0.113552146
2	0x3f28cc1c	0.65936446
3	0xbe09cdea	-0.13457456
4	0xbeba851f	-0.36429688
5	0xbd6394cf	-0.055561837
6	0xbea0e316	-0.31423253
7	0x3ea9ffba	0.33202916

state_embedding.fieldeffect_embeddings.16.embedding.weight f4 [2, 4]
0	0xbebebbbf	-0.37252614
1	0xbf02d917	-0.511125
2	0x3e966d84	0.2938043
3	0x3ee62de0	0.44956875
4	0xb60183b4	-1.929916e-06
5	0x3f0e392b	0.5555598
6	0x3ee424f6	0.4455945
7	0xbe07a3b7	-0.13246046

state_embedding.fieldeffect_embeddings.17.embedding.weight f4 [2, 4]
0	0x3ef04653	0.46928653
1	0x3e28d20c	0.16486377
2	0xbec3cc4e	-0.3824181
3	0xbf21f6fc	-0.63267493
4	0x3ee4a657	0.44658157
5	0xbe581269	-0.21100773
6	0xbf2cf599	-0.6756225
7	0x3f121989	0.57070214

state_embedding.fieldeffect_embeddings.18.embedding.weight f4 [2, 4]
0	0xbf38198a	-0.7191397
1	0xbe81de44	-0.25364888
2	0x3ebdeaac	0.37093103
3	0x3e966e86	0.29381198
4	0x3ea30243	0.31837663
5	0x3f0a475c	0.54015136
6	0xbb15ebc7	-0.002287613
7	0x3ebb1f54	0.3654734

state_embedding.fieldeffect_embeddings.19.embedding.weight f4 [2, 4]
0	0xbdc4f5d6	-0.09617202
1	0xbe18cbd8	-0.1492151
2	0xbe05c081	-0.13061716
3	0x3edcd2f6	0.431297
4	0xbf1d8481	-0.6153031
5	0x3e033b52	0.12815598
6	0xbf061a29	-0.5238367
7	0x3f1d3ee0	0.61424065

state_embedding.fieldeffect_embeddings.20.embedding.weight f4 [2, 4]
0	0x3ee9f52a	0.45694858
1	0xbf43bf20	-0.7646351
2	0x3caf64c6	0.021410357
3	0x3e1176c4	0.14205462
4	0x3ee0e751	0.4392648
5	0xbe21e845	-0.1581126
6	0xbf07ca7e	-0.53043354
7	0x3eedeed9	0.4647129

state_embedding.fieldeffect_embeddings.21.embedding.weight f4 [2, 4]
0	0xbf04a02a	-0.5180689
1	0x3f3b7997	0.73232406
2	0xbda858ed	-0.08220086
3	0x3c20e221	0.009819538
4	0x3ea420e5	0.32056347
5	0x3b897118	0.00419439
6	0xbec47af2	-0.3837505
7	0x3e8ae42a	0.271272

state_embedding.fieldeffect_embeddings.22.embedding.weight f4 [2, 4]
0	0xbec5015e	-0.38477606
1	0xbe950a39	-0.29109362
2	0x3f310954	0.6915486
3	0xbea94a9d	-0.33064738
4	0xbefb4700	-0.49077606
5	0x3e8eb77f	0.2787437
6	0xbec9c85b	-0.39410672
7	0x3dcfffde	0.10156225

player.active_pokemon.move_embed.move.w_1.weight f4 [8, 8]
0	0xbd4b4b79	-0.049632523
1	0xbdf5cb90	-0.12001717
2	0xbcf0ac31	-0.029378982
3	0x3d3b8e16	0.0457898
4	0xbd8ea970	-0.069659114
5	0x38ef29b8	0.00011404179
6	0x39386967	0.00017586873
7	0x3613561c	2.195483e-06
8	0x3aa55a11	0.0012615343
9	0x3c95d725	0.018291065
10	0x34e54245	4.270279e-07
11	0x3744fcf7	1.1741408e-05
12	0x3da939fd	0.082630135
13	0x3bd03bfd	0.0063548074
14	0x336b0470	5.4719237e-08
15	0x3b4cacfa	0.0031231032
16	0xbcd3ee94	-0.025870599
17	0x37a04f9b	1.9110556e-05
18	0x3e2ed288	0.17072499
19	0xbb5d7316	-0.003379052
20	0x3dacada5	0.084315576
21	0x3e1ea594	0.1549285
22	0xbb904e59	-0.004403871
23	0xb51ddd79	-5.880934e-07
24	0x3c7dd2c8	0.015492149
25	0x36309205	2.6311038e-06
26	0xb4b057b2	-3.284636e-07
27	0x3d1e26aa	0.03861109
28	0x3d544070	0.051819265
29	0xbde42bba	-0.11141153
30	0x3cdc7200	0.026909828
31	0xbb341090	-0.0027475692
32	0xbdda0f03	-0.106473945
33	0x3a460b50	0.0007554786
34	0x3dafe8d3	0.085893296
35	0x34baa1a6	3.4762814e-07
36	0xb5c83972	-1.491788e-06
37	0x3d771614	0.06032379
38	0x3d8777e8	0.06614667
39	0xb7b552da	-2.1615462e-05
40	0x35d3442d	1.5740567e-06
41	0xb6c45e90	-5.8522637e-06
42	0x331afb3b	3.6084412e-08
43	0xbe296d1e	-0.16545531
44	0xbdb3ab00	-0.0877285
45	0x34cc8e46	3.810148e-07
46	0x3e01e985	0.12686737
47	0xb20d8e08	-8.239574e-09
48	0x3dbcb792	0.09214701
49	0xbbda3be5	-0.006659972
50	0x3e2b069e	0.16701743
51	0x3d5b36f9	0.053519223
52	0xbd80c67a	-0.062878564
53	0x36980bf4	4.5313445e-06
54	0x3d9a8f1b	0.075468265
55	0x3dfc3c7c	0.12316224
56	0x3e1e9ec5	0.15490253
57	0x3e1883e4	0.14894062
58	0xb4d19fce	-3.9045557e-07
59	0x3e2a607f	0.16638373
60	0xbc954849	-0.018222945
61	0xbe17aa0b	-0.1481096
62	0x3d9bc899	0.0760662
63	0x352a8a81	6.3531485e-07

player.active_pokemon.move_embed.move.w_1.bias f4 [8]
0	0xb29aafca	-1.80079e-08
1	0xbbf9ec43	-0.0076270415
2	0xbdeee07d	-0.116639115
3	0xbe2d4590	-0.16921067
4	0x34c5c2e2	3.6835905e-07
5	0xbe23c3a4	-0.159926
6	0x3d2ebd81	0.042661194
7	0x3d3d675b	0.046241146

player.active_pokemon.move_embed.move.w_2.weight f4 [16, 8]
0	0x3dbd27ac	0.092360824
1	0x3db6f211	0.08932889
2	0xb7ca80f1	-2.414032e-05
3	0x3d8e3cb9	0.06945176
4	0xbe0827ce	-0.13296434
5	0x3c8cbed3	0.017180836
6	0xb55f7989	-8.325083e-07
7	0x38531da3	5.033392e-05
8	0x35ea8c68	1.7475222e-06
9	0xbe1f0b6a	-0.15531698
10	0x3e1c10f0	0.15240836
11	0xbdf9c46f	-0.1219567
12	0x3a29ca41	0.00064769766
13	0x35714256	8.987603e-07
14	0x3e077cba	0.13231173
15	0x3c87f602	0.016596798
16	0x369b74d9	4.632963e-06
17	0x3cf9f402	0.03051186
18	0x3db6fda1	0.089350946
19	0x3d48b991	0.049005095
20	0x3e041ca7	0.12901555
21	0x3d4e6d6a	0.050397314
22	0xbc47f373	-0.012204039
23	0x3dde12cc	0.10843429
24	0x325f4908	1.2996914e-08
25	0xb37a49b8	-5.8274708e-08
26	0x37b6c26f	2.178663e-05
27	0x3e30d215	0.1726764
28	0xbe1b73c2	-0.15180877
29	0x3dbe3d64	0.09289053
30	0xbe2f51ba	-0.1712102
31	0xbde085d3	-0.10963025
32	0x3c49064b	0.012269567
33	0x34a512b6	3.074726e-07
34	0xbc6bce53	-0.014392453
35	0xb4c5f336	-3.687107e-07
36	0xb4acc0e8	-3.2177854e-07
37	0xbd30b6f5	-0.04314323
38	0x3e30c429	0.17262329
39	0xbc421154	-0.011844952
40	0xbc6a6303	-0.014305833
41	0xb5a40055	-1.2219049e-06
42	0xbd4e92f7	-0.050433125
43	0x3d9b52f4	0.075841814
44	0x3d948266	0.07251434
45	0xbde7254e	-0.11286412
46	0xbddf7153	-0.10910287
47	0x3d1f8716	0.038947187
48	0xb96aefc8	-0.00022405304
49	0x311afd60	2.2553976e-09
50	0xbc2e3129	-0.010631838
51	0xb508e859	-5.100206e-07
52	0x3e0f6229	0.14002289
53	0x3de53f79	0.11193747
54	0x3e19a0bb	0.1500272
55	0x3d560b59	0.052256916
56	0x35a42fc3	1.2232853e-06
57	0xbe0c6b5a	-0.13712826
58	0x3ce04fbc	0.02738177
59	0x3e08b619	0.13350715
60	0xbd7323e1	-0.05936039
61	0x3d03311e	0.032029264
62	0xb5843dac	-9.852715e-07
63	0xbd11bd7a	-0.03558109
64	0x367afe2a	3.7400846e-06
65	0x3dd6f066	0.10495071
66	0x3bb30e76	0.0054643704
67	0x3d01ea1b	0.0317174
68	0xb9ba2414	-0.00035503565
69	0xb5e874df	-1.7319361e-06
70	0x3e3725eb	0.17885558
71	0x3b40f3bb	0.002944215
72	0xbdbf1fd3	-0.09332242
73	0x3e0e69b8	0.13907516
74	0x3dca3117	0.098726444
75	0xbe2e3217	-0.17011295
76	0xbe12c2e3	-0.14332156
77	0xb6c9d8ca	-6.0155044e-06
78	0xbd4dfb37	-0.050288405
79	0xbc0e5a0f	-0.008688464
80	0x3a3ce1be	0.0007205269
81	0xb5e9bc36	-1.7414629e-06
82	0xbdadb95b	-0.084826194
83	0x3d908b8d	0.07057867
84	0xbdd2454b	-0.10267123
85	0xbe3119d5	-0.1729501
86	0x36258d02	2.4668993e-06
87	0xbbcb7147	-0.006208572
88	0xbd8129b9	-0.06306786
89	0xb3e989b7	-1.0874958e-07
90	0xb567b604	-8.6319073e-07
91	0xbddaff5d	-0.10693238
92	0xb7790dc0	-1.4844758e-05
93	0x3cc46bd5	0.0239772
94	0xbe31547e	-0.17317387
95	0x3bac600a	0.005260472
96	0x3e1fdcdd	0.15611596
97	0xb9fbf606	-0.00048057752
98	0xbcd90c3e	-0.026495095
99	0xbdfb97d7	-0.122848205
100	0xbe129881	-0.14315988
101	0x3e16851e	0.14699218
102	0xbdd11c62	-0.10210492
103	0x37c668fa	2.3652323e-05
104	0x3c72522d	0.0147901
105	0xbe270dfe	-0.16313931
106	0x357a2018	9.317896e-07
107	0xbd43d793	-0.04781301
108	0x35cb5bc2	1.5151384e-06
109	0x3e23e0c9	0.16003717
110	0x3da05c77	0.07830136
111	0x3d486801	0.04892731
112	0x3d2fd234	0.042925075
113	0xbdcba984	-0.09944442
114	0xbd03e735	-0.032202918
115	0xbde4124e	-0.11136304
116	0xbd2a0aa8	-0.04151407
117	0xb585403f	-9.92797e-07
118	0xb3861214	-6.2431496e-08
119	0xbe115314	-0.14191848
120	0x3a149aaa	0.00056687987
121	0xbd8b1883	-0.067917846
122	0x3b0bfc36	0.0021360046
123	0x3c8b1383	0.016977077
124	0x3d9018cb	0.07035979
125	0xbe1f230f	-0.15540718
126	0x3b2fc843	0.0026822246
127	0xb6c857d0	-5.970687e-06

player.active_pokemon.move_embed.move.w_2.bias f4 [16]
0	0x3ccd6fcf	0.025077729
1	0xb394bf09	-6.926536e-08
2	0xbdeac0c0	-0.114625454
3	0x3be27e04	0.006911995
4	0x3c157080	0.00912106
5	0x3dc53630	0.09629476
6	0xb79cc2cb	-1.8687357e-05
7	0x34addb83	3.2383477e-07
8	0xbd4069e5	-0.04697599
9	0xbc1bf751	-0.009519414
10	0x3cd04189	0.025421875
11	0xbc3a3abf	-0.011366545
12	0x3dd7f28b	0.10544308
13	0x3e3836ef	0.17989706
14	0xbe19196f	-0.14951108
15	0xbb830cff	-0.003999352
