network_4.pth (torch_old, 859342 bytes, 434 tensors)

state_embedding.pokemon_embedding.embedding.weight f4 [893, 32]
000000 66 a0 0d be da 3b 23 3e 98 9a 44 be a5 33 ba bd
       -0.13830718 0.159408 -0.19199598 -0.09091882
000010 44 2a 97 bd ad 6e 5d bd 5e d2 39 3c 51 bd 51 be
       -0.073811084 -0.054060627 0.011341659 -0.20482375
000020 e2 a4 2f 3d 80 13 30 3c 11 5e b2 bc 9f c2 12 3a
       0.042881854 0.010746837 -0.02177337 0.0005598459
000030 b0 e4 be 3d ae 33 9f bd 4a 9a 8e bd 4b 13 3b 3d
       0.093209624 -0.07773529 -0.06963022 0.045672696
000040 cb 42 11 3e 7d 99 23 3e b8 8c f0 bd 28 1e 25 be
       0.14185636 0.1597652 -0.1174559 -0.16124785
000050 ba 52 e4 bd c8 76 c7 bd 13 6f 2b be 8d f9 bd 3c
       -0.11148591 -0.097394526 -0.1674159 0.023190284
000060 c5 19 bd 3c 49 98 8e 3d 4f c7 1b 3c 6e a4 65 bd
       0.023083577 0.0696264 0.009507968 -0.056065015
000070 20 4e 12 3e 85 dc 2b 3e 7e 1d 7b bd 58 e0 2c 3e
       0.14287615 0.1678334 -0.061307423 0.16882455
000080 ad ec 5e 3e 94 d1 92 3d be c2 f1 3e 49 e4 98 be
       0.21769972 0.0716888 0.4721889 -0.29861668
000090 a5 02 8c 3e 8c e1 a0 be ae 35 12 3e 70 56 30 3f
       0.27345768 -0.3142208 0.1427829 0.68881893
0000a0 28 0e 01 ba da bf 57 bf dc b7 a1 be 2a 89 ea bb
       -0.0004923069 -0.8427712 -0.31585586 -0.0071574645
0000b0 e9 30 e5 3e 37 4e 02 3e 30 0c 37 be 18 11 4b 3f
       0.44763878 0.12725149 -0.17875743 0.7932296
0000c0 fc cf 4d 3f 34 37 eb be ad e2 db be ae f1 91 3e
       0.80395484 -0.45940554 -0.42946377 0.285047
0000d0 3d 7e d7 3e 42 5c 32 3d 7d 25 4e 3f b6 2c 2e be
       0.420885 0.043545015 0.8052595 -0.17009243
0000e0 ff bc 25 be ae 6d c4 be 4a 5b 4b 3f 96 53 0c bf
       -0.16185378 -0.3836493 0.7943617 -0.5481504
0000f0 dd ea 1f 3f 29 e8 47 bf a8 24 3a 3f df e7 68 3e
       0.6246775 -0.78088623 0.72712183 0.22744702
000100 68 b6 18 bf d8 67 a8 be 7b 2e d9 3d fc ce 41 3f
       -0.5965333 -0.32891726 0.106045686 0.7570646
000110 2a 81 36 bd 3f f8 64 bf c0 62 64 bf f4 e8 08 bf
       -0.044556774 -0.89441293 -0.8921318 -0.5348046
000120 4f 0c e8 3e ba 06 26 3f 6f de 3f bf 76 04 2a 3f
       0.4532189 0.64854014 -0.7494878 0.66413057
000130 20 4f af 3e b5 bf 41 3f c1 c4 4c bf 5e e7 36 bf
       0.34240055 0.75683147 -0.7998772 -0.7144679
000140 e8 63 52 bf dd d7 05 bf 87 74 85 3e 82 fe 78 3e
       -0.82183695 -0.52282506 0.26065466 0.24315837
000150 b2 af 37 be b7 ab 0d bf 29 75 bc 3e dd aa 20 3e
       -0.17938116 -0.5534014 0.36808136 0.15690179
000160 82 d7 2b 3e 6b f7 8a be cc 23 52 3f 0b 38 9d 3d
       0.16781428 -0.2714189 0.8208587 0.07676705
000170 78 85 4b bf 79 b4 ca be 00 95 5b 3c 6a 49 f9 3e
       -0.7950053 -0.39590815 0.013402224 0.48688823
000180 c0 dd 5a 39 e2 62 5f bd f8 8b be b8 dc b3 23 bf
       0.00020872708 -0.05453766 -9.085977e-05 -0.6394632
000190 28 7b 38 3f de 0d fb be db d2 5b 3e df f9 19 3f
       0.7206292 -0.49034017 0.21467154 0.601469
0001a0 e8 5c 39 bf 1a 1a 8d b8 96 b7 ed bd 34 c9 cd bb
       -0.7240739 -6.728266e-05 -0.11607282 -0.006280089
0001b0 e8 60 8c 3e 91 84 09 bf 97 bc f4 39 1b 3f f5 be
       0.27417684 -0.53717905 0.00046679817 -0.47899708
0001c0 1b be ad 3e e5 39 a5 be f0 f6 9e 3e e6 8c fc 3d
       0.339341 -0.32270733 0.31047773 0.12331562
0001d0 98 ed 04 3f 30 8d 00 bf 84 15 5b bf 67 70 b0 3e
       0.5192504 -0.50215435 -0.85579705 0.34460756
0001e0 2f e3 64 bf 64 f8 f4 39 24 e9 0c bf 55 9a 17 bf
       -0.89409155 0.00046724372 -0.55043244 -0.59219867
0001f0 79 92 f0 bd 50 7e 61 bf d9 56 71 3d 79 aa 9b bd
       -0.117466874 -0.8808336 0.058920715 -0.076008745
000200 1e fa 3a be 79 c3 bc be dd 60 64 3e 6a e8 43 bd
       -0.18259475 -0.36867884 0.22302575 -0.04782907
000210 63 d0 19 bd 4c e6 f0 3d 9c 55 84 3e 99 33 4d be
       -0.03755225 0.11762676 0.25846565 -0.20039214
000220 b9 bd 22 3f 19 d1 16 3f 2b d7 11 bd c7 9f 36 bf
       0.63570744 0.5891281 -0.03560559 -0.7133755
000230 0b ee 3d 3f 5d 85 ad 3e 55 fb 60 bf 30 f3 2b be
       0.7419135 0.3389081 -0.878835 -0.16791987
000240 ee e2 58 3f 16 84 c9 3e 17 a7 1b 3f fa 4f d4 be
       0.8472127 0.39358586 0.60801834 -0.41467267
000250 cb cd 20 3e 6a 00 e7 be db ab 73 be 56 0a ca 3e
       0.15703504 -0.45117503 -0.23796026 0.3946101
000260 78 7a 2d be 94 1a 57 bf d8 68 37 bf f8 3b 31 3c
       -0.1694125 -0.8402493 -0.71644354 0.01081752
000270 4c ce 9c be 8c de b7 3e bf f7 a6 be 10 2c 98 3d
       -0.30626142 0.35911977 -0.3261089 0.07430279
000280 35 b2 0c be 54 a6 5e bd c4 f2 47 3c c5 41 9f bd
       -0.13739856 -0.05435784 0.012203876 -0.077762164
000290 c2 06 b8 bd 26 c5 2f bc c8 1a 96 3d 74 95 3c 3e
       -0.08985664 -0.010728156 0.07329327 0.18416387
0002a0 e4 35 b6 3c 43 13 2f 3d 27 9d ab bd e6 e0 38 be
       0.022242494 0.04274298 -0.08379584 -0.18054542
0002b0 e3 a7 52 3e 92 96 f2 3d a3 16 dc bd b1 14 16 bc
       0.20571856 0.11845125 -0.10746505 -0.009160207
0002c0 e4 ba 91 3c 98 64 f6 3c f3 ef 18 be 3c cb 35 be
       0.017789312 0.030077264 -0.14935283 -0.17753309
0002d0 79 a1 13 3e 0c f6 1d be 97 df 06 3c c2 16 17 3c
       0.14417066 -0.1542589 0.008232019 0.0092217345
0002e0 23 ad 5d be 08 b5 e1 bd 16 3d 10 be 0a a3 b0 3d
       -0.21648078 -0.11020857 -0.14085802 0.08624847
0002f0 de 15 b0 3c b5 c2 fd 3d f3 55 8c 3c e6 5e 29 3c
       0.021494802 0.12390653 0.017130828 0.010337567
000300 f6 7f 4c bf b5 32 8c be 6c eb 37 be 9a a7 c1 3e
       -0.7988275 -0.27382436 -0.179609 0.37823182
000310 bc e6 24 bf 0d 03 32 3d 9c 9f 18 bf 26 e1 29 bf
       -0.6441457 0.04345994 -0.59618545 -0.66359174
000320 e5 1f f5 be fc 0f 33 bf e5 0f 2e bf ad 41 5b 39
       -0.47875896 -0.69946265 -0.67993003 0.00020909934
000330 69 32 4d bf 14 f4 92 be b4 e1 21 bf 36 7d 53 3f
       -0.80155045 -0.28701842 -0.6323502 0.8261293
000340 31 03 2b 3f 45 9d 12 3f 80 34 ce be a2 01 41 3f
       0.66801745 0.57271224 -0.4027443 0.75393116
000350 a0 db 79 3e eb 42 bb be c0 c1 4a 3f cf 0b 17 bf
       0.24400187 -0.36574492 0.7920189 -0.59002393
000360 f4 b5 3a bf 56 ff 3a 3f e9 04 37 3f cd 34 79 be
       -0.7293389 0.7304586 0.7149187 -0.24336548
000370 d5 d0 2e be 0a 02 d5 3e 5c b0 5d bf ea ad 49 3f
       -0.1707185 0.41603118 -0.8659723 0.78780997
000380 82 77 62 3f d3 21 3f 3f 68 f0 bc bd 34 09 b5 3e
       0.88463604 0.74660987 -0.09225541 0.35358584
000390 86 78 f7 be d3 5c c7 be 21 3f 63 bd a6 8a 0d 3e
       -0.4833414 -0.38938007 -0.055480126 0.13822421
0003a0 0e a2 62 bf e7 dc 8e 3b cd fe 1d bf 3b 63 ee be
       -0.88528526 0.0043598297 -0.6171692 -0.46560082
0003b0 b9 a4 53 3e 44 84 cc 3e 98 f5 80 bd 93 19 6c bc
       0.20668305 0.3994466 -0.06296843 -0.014410394
0003c0 48 c0 48 3f 21 70 a6 3e 9e b5 b0 be 14 50 26 3f
       0.784184 0.32507423 -0.34513563 0.6496594
0003d0 50 26 3f bf c9 d4 a7 3e 9f af aa 3e 51 fa 3d bf
       -0.74667835 0.3277953 0.33337113 -0.7421008
0003e0 00 e1 5b 39 40 d8 41 bf 3a d5 31 bf 51 7d 50 3f
       0.00020969287 -0.75720596 -0.6946598 0.8144122
0003f0 17 08 82 3e 0f c1 43 3e 07 4d 41 3f 53 df 1d 3e
       0.25396797 0.19116615 0.7550816 0.15417223

state_embedding.type_embedding.embedding.weight f4 [20, 8]
000000 d7 6e 98 3d 6d 21 c2 be 04 21 5a 3d 88 c5 cd 3e
       0.07443016 -0.37916127 0.053254142 0.40189767
000010 75 58 c7 be f7 bf 9a 3e b3 8a 57 3e 3d d2 85 be
       -0.38934675 0.30224583 0.21049003 -0.26136962
000020 33 5f 4e 3f a4 12 3e 3e a0 30 53 3e 85 15 e0 be
       0.8061401 0.18561798 0.20624018 -0.43766418
000030 d3 75 1b 3f c3 02 31 bf 88 b3 32 3e 6b c6 35 3e
       0.6072666 -0.6914484 0.17451298 0.17751472
000040 c7 18 66 3f 04 b6 4e 3f 91 8c 65 3f 88 3c 06 bf
       0.8988156 0.80746484 0.8966761 -0.52436113
000050 b2 12 52 be c1 37 13 bf 9e 4b 40 bf da dd 61 bf
       -0.20514944 -0.5750695 -0.7511538 -0.88229144
000060 e1 36 24 3f 68 06 93 3e e8 78 88 3e 1c 06 4f 3f
       0.6414624 0.28715825 0.26654744 0.808687
000070 02 fc 26 bf 87 60 11 bf 22 76 4e 3e 22 8b 90 3d
       -0.65228283 -0.56787914 0.20162252 0.070577875
000080 27 de 0f 3e 7b cd 4d be 68 55 91 be e7 a6 01 3f
       0.14049588 -0.20097916 -0.28385472 0.506453
000090 8f 72 30 3e 61 30 27 3e cd a4 4e bf a8 7c 3e bf
       0.172312 0.16327049 -0.80720216 -0.7440896
0000a0 39 30 86 bd e9 f1 96 3d 08 8d eb 3e 39 f1 93 ba
       -0.065521665 0.073703595 0.46006036 -0.00112871
0000b0 2f 63 e6 3e 7c 20 ac be 48 1c 56 bc 89 73 a1 be
       0.44997546 -0.33618534 -0.013068266 -0.3153346
0000c0 f1 2e 54 bf 41 8c 65 3f 3b a8 5f 3f c1 fd c6 bd
       -0.82884127 0.89667135 0.87366074 -0.097163685
0000d0 bd f1 24 3e a3 4e 3a 3f 21 c8 1e 3f a0 c3 3d bf
       0.16107841 0.7277624 0.6202412 -0.74126625
0000e0 31 a4 a8 3d 86 eb 08 bf 02 9f 35 be 4b ac 57 bd
       0.08234442 -0.5348438 -0.17736438 -0.052654546
0000f0 8f b2 60 be 26 30 7d 3d 9f 56 58 3f 8f ea 85 3d
       -0.21943115 0.061813496 0.84507173 0.06538879
000100 e0 55 39 3e 4d ba a9 be 24 2c ef be 15 56 88 3e
       0.18099165 -0.3314995 -0.46713364 0.26628175
000110 25 e3 92 be 54 c9 8b be f1 e3 33 3d 88 8b db 3d
       -0.28688923 -0.2730204 0.043918554 0.10719973
000120 c0 a6 01 be 3b 63 02 bf 95 8e 4e bd 53 36 1f bd
       -0.12661266 -0.50932664 -0.050428946 -0.038870167
000130 98 44 2f 3e 1b 10 e9 be 24 66 b0 3c 2c 24 bf be
       0.1711601 -0.455201 0.02153308 -0.37332284
000140 90 7d f5 3e 4f d9 64 3f 32 b3 23 bf b2 9a 49 bf
       0.4794736 0.89394087 -0.63945305 -0.7875167
000150 1c ce 63 bd 17 7b 4e 3e 06 29 5a 3c 6c f9 32 3f
       -0.055616483 0.20164143 0.013315445 0.6991184
000160 3d fa f8 3e 43 17 80 3e df f5 97 bb bf b7 a2 3e
       0.48628417 0.25017747 -0.0046374644 0.31780812
000170 83 05 b3 39 53 46 21 bc 99 e8 f5 3e 72 9d 01 3e
       0.00034145647 -0.009843427 0.4802902 0.12657717
000180 95 0e 18 bf d5 f2 24 3e fb 8e 08 3f ff 39 36 3f
       -0.5939725 0.16108258 0.5334317 0.71182245
000190 a0 2f 33 3f 51 87 ec bd 34 99 aa 3e ed 21 4e bf
       0.69994545 -0.11549247 0.3332001 -0.80520517
0001a0 46 66 e7 3e 0a c6 85 be 9a ce e0 bd a1 93 3a 3f
       0.45195216 -0.26127654 -0.10976906 0.72881514
0001b0 46 49 24 3f 9d 94 61 3f e4 2f 93 3d 71 f2 8a 3e
       0.64174306 0.8811739 0.07186869 0.27138093
0001c0 74 b2 95 3e 5c 2c 40 bd 01 61 51 be 55 a2 3f be
       0.2923771 -0.046917304 -0.2044716 -0.18714269
0001d0 4a 3c c9 bc c5 9f f5 be 9c 1c db be 76 68 38 3e
       -0.02456488 -0.47973457 -0.42795265 0.18008599
0001e0 2f 32 f2 bd c1 4f 02 3f d3 db 06 3e d0 92 57 3e
       -0.11825978 0.50902945 0.13169794 0.21052098
0001f0 bf de 7e be 53 94 94 3b cc 06 36 3d 26 a7 9b bd
       -0.24889658 0.004534283 0.044440076 -0.076002404
000200 66 f4 bc be 8a 51 04 3d ac 8e 96 be 65 ae c5 3e
       -0.3690521 0.032304324 -0.29405725 0.38609615
000210 38 dd 3a 3d 8c da c9 3d 64 a4 fb be 76 f1 54 3d
       0.045621127 0.09856138 -0.49148858 0.051988088
000220 e1 bf 89 be 21 d8 e1 3e f6 3b 54 bd d5 f6 16 3d
       -0.26904204 0.44110206 -0.051814996 0.03685649
000230 07 5c 5b 3f 58 3d 60 bf 9e 59 a6 3d 98 3f 46 bf
       0.856873 -0.87593603 0.08122562 -0.77440786
000240 fc 18 ee be ce e0 d5 3e 4f f6 33 b8 69 e9 10 3f
       -0.46503437 0.41773075 -4.290632e-05 0.56606156
000250 21 30 45 3f 44 13 07 be e6 a6 58 bd c6 a0 38 3b
       0.77026564 -0.13190943 -0.05289354 0.0028172
000260 fd dd 35 be d1 8b a3 3e 76 c7 de 3e f7 f5 dd 3d
       -0.17760463 0.3194261 0.43511552 0.1083793
000270 2f 25 e9 3e cc 24 17 3c 11 aa 99 bd b9 22 91 be
       0.4553618 0.009225082 -0.07503141 -0.28346804

state_embedding.move_embedding.embedding.weight f4 [1003, 8]
000000 8e 6b 01 be 02 52 5b b9 11 18 8b 3e 80 19 c1 be
       -0.12638685 -0.00020916018 0.271668 -0.37714767
000010 8c 2f 57 3e 00 d0 ca be 5f 05 95 be 32 03 7b be
       0.21014231 -0.39611816 -0.2910566 -0.24512938
000020 1f e0 23 3e fa ca a6 3e 7d f0 de 3e c2 06 e0 3d
       0.16003464 0.32576734 0.43542853 0.10938789
000030 26 7c be be 7d 98 e7 be fd 60 d0 bd 13 5b 83 3e
       -0.37204093 -0.45233527 -0.10174749 0.25655422
000040 b8 78 9b bd c7 a8 0a 3f a6 39 21 3d 45 30 de be
       -0.07591385 0.54163784 0.03936162 -0.43396202
000050 ee ea bf 3e 36 a7 54 be ba 19 4b bf 6b 90 35 3f
       0.37483925 -0.20766911 -0.7933613 0.7092349
000060 63 5f 0d bf 2f e9 5b be af 09 48 3f 4f 55 22 bf
       -0.55223674 -0.21475671 0.78139776 -0.6341142
000070 54 aa 5a 3f 4b 87 97 bd 44 f7 0a 3f 79 f1 68 bd
       0.8541615 -0.07398852 0.5428355 -0.05687091
000080 0e 5f db be 29 e8 28 3f 94 08 27 3f ac 22 41 3f
       -0.42845958 0.6597925 0.65247464 0.7544353
000090 30 15 4f 3f 80 38 58 be 31 1a 5c be 34 69 0f bf
       0.80891705 -0.21115303 -0.21494366 -0.560199
0000a0 b1 fb 61 3f 9a 0e de bd 2f 68 f2 3d ee f6 96 be
       0.88274676 -0.10842629 0.11836278 -0.29485267
0000b0 44 b1 77 b6 6c 27 f0 39 90 6e 2a be 3a ff 32 3e
       -3.690905e-06 0.0004580574 -0.16643739 0.17480174
0000c0 f6 22 4d 3f 43 50 36 bf bb 17 43 3f 57 bd 21 bb
       0.8013147 -0.7121622 0.76208085 -0.0024679506
0000d0 69 26 af 3c 10 24 21 bf c1 7e ad 3e 5f 36 0c bf
       0.02138062 -0.6294565 0.33885768 -0.54770464
0000e0 84 e1 24 bf 55 64 37 bf 01 69 2f bf 71 3b cd 3d
       -0.6440661 -0.7163747 -0.685196 0.10021103
0000f0 8e 43 3e 3f 1b 9b bd bd 05 4f 06 bf 73 2e c0 3e
       0.7432183 -0.092581 -0.52464324 0.37535438
000100 4c 7f ca bd 90 88 35 bf 5b c8 1a be 6b a8 f7 bd
       -0.09887561 -0.709115 -0.15115492 -0.1209267
000110 13 2d 70 be 3a 1f cd b8 8f 17 c2 be a3 8a 04 3f
       -0.23454694 -9.780978e-05 -0.379086 0.5177404
000120 4d f1 80 bd f3 f8 2b 3d 09 3e 19 3f 7c 88 08 be
       -0.062960245 0.041985463 0.59860283 -0.13333315
000130 da ac a5 3d 1c c0 fb 3e 8a 22 e5 be fa 58 dd be
       0.080896094 0.49170005 -0.44752914 -0.43231946
000140 75 4e 13 be ce 0c 34 bd ca fc 4b bf f4 be 54 bf
       -0.14385398 -0.043957524 -0.796826 -0.8310387
000150 41 f0 5f 3f 69 de ea be 5e 2d 39 be db d0 10 bf
       0.87475973 -0.4587281 -0.18083712 -0.5656869
000160 69 86 f5 3e b3 b2 e8 3e b3 1b 29 be b6 a5 54 be
       0.4795411 0.45448837 -0.16514473 -0.20766339
000170 0f ed 82 be 26 45 a2 3c d0 7a 25 3f b9 98 a7 b8
       -0.25571486 0.019808363 0.6464052 -7.991627e-05
000180 dd 01 91 be 9c 39 c6 bd 7d 7c 47 bf 2a 48 4b bf
       -0.28321734 -0.09678957 -0.7792433 -0.7940699
000190 1a e3 5b 3e 20 f0 23 3f 8a 45 b5 3e e3 41 fc 3b
       0.21473351 0.64038277 0.35404617 0.007698284
0001a0 eb b5 cd 3e 67 0d 0b 3f a3 35 64 3f 11 90 bf 3e
       0.40177855 0.54317325 0.89144343 0.374146
0001b0 e3 1a fb be 4b 53 28 bf 94 94 aa b8 ad 39 06 bd
       -0.4904395 -0.65752095 -8.1339065e-05 -0.032769848
0001c0 62 89 04 3f de ae ba 3e b9 8f d5 3e 94 cb 1b 3f
       0.5177213 0.36461538 0.41711214 0.6085751
0001d0 b6 72 3c 3d d4 6f 58 bf 21 cd b7 be 8e f6 b5 be
       0.046007834 -0.84545636 -0.35898688 -0.3553967
0001e0 30 f2 05 3f ee a6 c6 3e 94 94 60 bf 9e 31 4c 3f
       0.52322674 0.38799232 -0.8772671 0.7976321
0001f0 67 c7 d1 bd 75 d2 1f bf e4 f2 19 3f 41 b6 21 bf
       -0.10243111 -0.62430507 0.60136247 -0.6316872
000200 8d 3e f5 be 2b 3e 7f be 11 fe 84 3e 55 e2 b1 3d
       -0.47899285 -0.24926059 0.25975087 0.086857475
000210 55 53 97 3e 46 ee b7 39 84 db c4 3e 14 27 e8 bc
       0.29555765 0.00035082008 0.38448727 -0.028338946
000220 7b cb 9e 3e 5e 25 8e be 82 fd a1 bd 60 59 17 be
       0.31014618 -0.27762884 -0.07909681 -0.14780188
000230 0e b2 4b bf 05 18 4a 3f 22 b0 2b bf bf a5 5c 3f
       -0.79568565 0.789429 -0.6706563 0.8619041
000240 cd 46 ac 3e 06 29 30 bf 73 d4 66 3f 6c fe b8 3e
       0.33647767 -0.68812597 0.9016792 0.36131608
000250 fb ae 59 bf bf 68 aa be 55 b8 4b 3f 73 d8 9b bd
       -0.85032624 -0.3328304 0.79578143 -0.07609644
000260 73 5d 37 bf 26 05 e9 3e fc ab ee 3c 10 45 53 3f
       -0.7162697 0.4551174 0.029134743 0.82527256
000270 f0 e8 ab 3e d1 a3 32 bb bd 47 0b 3f 10 69 3b 3f
       0.33576155 -0.0027258287 0.5440634 0.7320719
000280 98 8c 29 3f b5 82 c3 be a8 5a 0d 3e be d4 16 3f
       0.66230154 -0.3818566 0.13804114 0.5891837
000290 ab 56 8f be 79 ea 47 be 94 1d 8a 3b 4b 34 bb 3d
       -0.2799581 -0.19523038 0.004214952 0.091408335
0002a0 1e 8a 3e 3f 40 92 8d 3e 99 43 f1 38 2b 47 44 3f
       0.744295 0.27650642 0.000115043666 0.76671094
0002b0 9b a3 e7 3e c3 2a 37 3f b1 fc 88 3e ce 71 07 3f
       0.4524201 0.71549624 0.26755288 0.5290803
0002c0 f6 67 53 3f 7d 3b cc 3e 91 eb 1f 3f c9 c6 97 bd
       0.82580507 0.39889136 0.6246882 -0.07410962
0002d0 85 a2 83 bd 04 f1 db 3e 3d 44 25 3f be 5a 76 be
       -0.064274825 0.42957318 0.6455725 -0.24058053
0002e0 c2 3a 3c 3f ae 2f 2d 3f 83 b1 53 39 d9 ae 5c 3f
       0.7352716 0.6765088 0.00020188656 0.86204296
0002f0 db df 0b 3e 7e a9 4d bd 9a 27 30 bf 96 0b 02 bf
       0.13659613 -0.05021047 -0.6881043 -0.5079893
000300 b5 e2 44 bf 01 b5 fb 3e 9b 44 c4 3e 72 9f db 3e
       -0.7690843 0.49161533 0.38333592 0.42895085
000310 0d 06 3f 3f 25 fe 60 bf 92 85 49 3e fa 6a 20 bf
       0.7461861 -0.87887794 0.1967986 -0.62663233
000320 7f f0 47 3e 40 f8 59 3f 60 fb 25 3f 78 3f ed b8
       0.19525336 0.85144424 0.6483669 -0.000113128626
000330 59 dd 0d bf 5b 02 90 be 9a 8b ef be d5 4e 01 3f
       -0.55415875 -0.28126797 -0.46786195 0.50510913
000340 fe 5d f5 be 50 ba 43 bf 40 50 3e bd 52 ef 20 be
       -0.47923273 -0.76456165 -0.04646325 -0.15716293
000350 08 b0 8a 3d cc 58 0a 3f de f3 6e 3e d7 3b a5 3e
       0.067718565 0.54041743 0.23335215 0.32272217
000360 c6 49 ed 3d 2f 8d e6 be 63 a1 4e bf 39 5f 05 3e
       0.11586337 -0.4502959 -0.80715007 0.13024606
000370 84 c6 f6 bd af 81 ef 3e db fe 17 bf 4f d3 fa be
       -0.120495826 0.46778628 -0.59373254 -0.4898934
000380 b4 e9 54 be 6b 71 ea be 2e 8f 48 bf 68 e9 31 bf
       -0.20792276 -0.45789656 -0.78343475 -0.69496775
000390 f0 0d 08 bf 03 18 8d b7 80 e9 64 3f 19 71 d4 3e
       -0.53146267 -1.6819691e-05 0.8941879 0.41492537
0003a0 49 b4 71 be 25 81 8a 3e bd 95 d6 be 74 be fb be
       -0.2360393 0.27051654 -0.41911116 -0.49168742
0003b0 86 e3 25 bf 49 97 ff 3e 0b 89 54 3f bf ca f8 3e
       -0.648003 0.4992011 0.8302161 0.48592183
0003c0 9a dc ea 3e 6d a3 d9 bd 87 b5 56 3f c4 0d 8b b9
       0.4587143 -0.10626874 0.8387074 -0.00026522402
0003d0 6d cd 34 bf 56 16 1d be fa 26 9a be c6 d1 09 bf
       -0.70625955 -0.15340552 -0.30107862 -0.53835714
0003e0 ba 5e 98 be 48 69 3b 3d 48 72 65 3f 34 f2 1b bf
       -0.2975977 0.0457547 0.89627504 -0.6091645
0003f0 75 bb 37 be 7e e4 1e 3f ee 48 88 b7 f0 d4 dd 3e
       -0.17942603 0.620674 -1.6246424e-05 0.4332652

state_embedding.move_type_embedding.embedding.weight f4 [20, 8]
000000 77 09 84 be 7c fd f5 3e 55 19 df 3d f8 14 b7 b9
       -0.2578847 0.48044956 0.108935036 -0.00034920103
000010 f3 54 b6 3e 0b 24 ca 3e cd bd 04 3d 00 dc fc bd
       0.35611686 0.39480624 0.03240757 -0.12346649
000020 ab df 0b bf 18 ed d3 be fe f9 e0 be 1d 69 6c bc
       -0.54638165 -0.41391826 -0.4394073 -0.014429358
000030 99 b9 35 bf d8 9b 42 3e c9 1a 38 be 16 d5 c2 3e
       -0.70986325 0.19004762 -0.17978968 0.38053197
000040 e3 fe 08 bf 48 bd 3c bf 92 6b ea 38 e1 81 d0 be
       -0.53513926 -0.7372632 0.00011178026 -0.4072409
000050 dd 2b 29 3f 0d 0b 50 3f 14 db 40 bf 5c a4 7d 3d
       0.66082555 0.8126686 -0.75334287 0.061924323
000060 dc 2a 4c 3f 2d bf a0 3e 60 30 3e 3f 07 a1 fa be
       0.797529 0.31395856 0.74292564 -0.4895098
000070 91 e7 06 bf ea 35 f2 be 06 57 6e 3d e1 92 bc 3e
       -0.5269709 -0.47306758 0.05818846 0.3683081
000080 e5 48 44 3e e4 8e 37 3f ca f9 8a bd 7e 03 db 3e
       0.19168432 0.7170241 -0.06785925 0.42776102
000090 d4 e7 c2 3e eb 18 08 3f 7f c0 12 3f 64 da 5b b9
       0.38067496 0.5316302 0.57324976 -0.00020966824
0000a0 48 4c 48 3e 1e 3d a3 3e 31 a3 8f 3e 2e 1a c3 be
       0.19560349 0.31882566 0.28054193 -0.3810591
0000b0 c5 42 8f 3e b3 0c 9c be 54 e9 06 be ed 10 af 3d
       0.2798063 -0.3047844 -0.13174945 0.0854815
0000c0 77 dc e0 be 56 9a e5 be 80 9f d4 39 cd 44 bd bd
       -0.439182 -0.4484431 0.00040554628 -0.09241638
0000d0 9b be 0a 3e 10 6d 0c 3d 7f b9 aa be 8d 5f 8b be
       0.13549273 0.034283698 -0.33344647 -0.27221337
0000e0 dd 67 14 be e4 7e 5b be d9 13 6c 3e e5 48 ea 3d
       -0.14492746 -0.21435124 0.23054446 0.11439685
0000f0 bf 15 13 b9 96 8c dd 3e 1b 41 54 3f 3a e0 f5 3b
       -0.00014027114 0.4327132 0.82911843 0.0075035365
000100 84 d3 17 b9 c9 ed 6b be 47 10 10 3e 08 07 c6 be
       -0.00014479278 -0.23039927 0.1406871 -0.3867724
000110 17 b4 39 3e 49 a0 d2 be b2 1a cf 3e 15 5f 9a bd
       0.18135105 -0.41137913 0.40450054 -0.07537667
000120 91 bf a8 bc a7 bd 02 3d 99 49 f0 3e 6c 10 29 3e
       -0.020599158 0.031919148 0.4693115 0.1651017
000130 cb 33 8b 3e a0 22 c2 3a a9 bc 8d be c3 67 ef 3e
       0.27187952 0.0014811344 -0.27683 0.4675885
000140 e1 a1 24 3f c5 35 0d bf 08 ae ed bd 5a e8 61 3f
       0.6430951 -0.5516017 -0.116054595 0.88245165
000150 35 3e 5d bf 7a 9d 96 37 95 10 f5 3e 3d 3d 5b bf
       -0.86423045 1.7954724e-05 0.47864214 -0.8564032
000160 19 22 88 be c2 d7 5b be 2c b0 33 be cf f5 9f be
       -0.26588514 -0.21469024 -0.17547673 -0.31242225
000170 97 ad 1a 3e 98 f6 53 3e 79 20 aa be d9 8b b8 be
       0.15105282 0.20699537 -0.332279 -0.36044195
000180 fc fe 45 3e ce 6e 48 3b 5b f8 7f be 54 c3 f2 3d
       0.1933555 0.0030583623 -0.24997084 0.11853662
000190 d3 55 a9 3e 1e 14 d4 3e 7d b2 c1 3e 78 6a 4f 3e
       0.3307329 0.41421598 0.37831488 0.20255458
0001a0 41 83 f1 be 55 9a 2b bd c1 a6 78 be a3 cc 20 be
       -0.4717045 -0.04189523 -0.24282362 -0.15703063
0001b0 e2 50 91 be 1e 21 84 3d ca dd 52 be f4 3c c6 be
       -0.2838202 0.06451629 -0.20592418 -0.3871838
0001c0 1a 78 22 be 8e e1 89 3d 4d 0d 62 3e 7f 3f 63 3e
       -0.15866128 0.06732474 0.22075386 0.2219219
0001d0 66 97 b1 bd d2 c6 ba be a9 17 bd be 82 59 d3 3e
       -0.08671455 -0.36479813 -0.36932114 0.41279227
0001e0 26 0f 24 3e ec 6c 91 3e f3 37 f7 3a cb b1 02 be
       0.16021404 0.28403413 0.0018861279 -0.12763135
0001f0 6b da d7 be a6 fb 86 be 4d 4e dd be 38 45 2d 3e
       -0.42158827 -0.26363868 -0.432238 0.16920936
000200 3c e3 05 bf 14 b2 cf 39 0b e6 cd 3e 10 1c 3f 3e
       -0.5229986 0.00039614795 0.4021457 0.18663049
000210 f2 fa 02 3d a0 e9 97 be 75 ae 15 be 38 04 2b 3e
       0.0319776 -0.2967043 -0.14617331 0.16700828
000220 48 d6 cc 3d 10 39 64 3f 10 07 be be d2 c8 7a bd
       0.100018084 0.8914957 -0.37114763 -0.061226673
000230 ab 5d 00 bf 28 f2 ce 3e 8d 91 3d be 94 59 e9 3d
       -0.50142926 0.40419126 -0.18512554 0.11394039
000240 84 75 d8 39 3b 5d be be f0 fc 78 3e 3a a6 11 bd
       0.00041286286 -0.37180504 0.24315238 -0.035558917
000250 8f d4 0e 3f f4 84 93 ba d6 67 af be f6 f6 af 3d
       0.5579309 -0.0011254833 -0.34258908 0.08592026
000260 ab 26 94 3c a1 1e 8e be be ba 7f be 06 d6 f2 3e
       0.018084845 -0.27757743 -0.2497358 0.47428912
000270 5e 51 2c bd 67 3f ec 3e 80 0b 19 3e dd f9 99 3d
       -0.042069785 0.46142122 0.14945793 0.07518361

state_embedding.ability_embedding.embedding.weight f4 [261, 4]
000000 02 31 af be b7 12 9a be 0b ce 8f 3e 5a 1f 2f bf
       -0.34217077 -0.30092403 0.28086886 -0.68407214
000010 d2 02 72 3d 0b 9c ed be 8b 9f 1c 3e 7c b6 e0 be
       0.05908472 -0.46408114 0.15295236 -0.43889225
000020 fa dc 02 3d ab e0 71 be d1 bf 42 bd d2 bd 30 3f
       0.03194902 -0.2362086 -0.04754621 0.6903964
000030 59 9d 81 3e a0 aa 34 3c 92 6c 2a bf b4 b2 36 3e
       0.2531536 0.011027008 -0.66571915 0.17841607
000040 ef 38 4a 3f a7 90 a5 3e fa 12 04 bf a7 44 18 3f
       0.78993124 0.32336923 -0.51591456 0.59479755
000050 cd 0c cd bd 10 79 ea be af 23 e1 be 83 f2 e6 3e
       -0.10012207 -0.45795488 -0.43972537 0.45106897
000060 6d ff e3 3d d4 15 56 3f 0c cc 0a bf 57 37 a7 be
       0.11132703 0.8362706 -0.542176 -0.32659408
000070 db 96 e4 bd 01 a4 c3 3e 33 51 15 3f 4a c3 14 3f
       -0.11161586 0.38211063 0.58327025 0.5811049
000080 2f 64 5d 3f 6a 7b 0e be 58 48 9a bc 98 4d 97 3e
       0.86480993 -0.13914266 -0.018833324 0.29551387
000090 9b 8b 22 3f 79 e8 1d bf 0f 94 d9 b9 60 bb 56 3f
       0.6349427 -0.6168285 -0.00041499778 0.8387966
0000a0 3e 4e 47 bf 86 3c 10 3d a2 63 a8 be 7b 44 80 bd
       -0.77853763 0.03521397 -0.32888514 -0.062630616
0000b0 4c 98 94 be a5 0a 04 bf e6 83 64 3e 1e a3 04 bf
       -0.29022443 -0.5157874 0.2231594 -0.518114
0000c0 bb 1d 2f bf b0 6e 93 bd fd aa bb b9 8c 46 8a bd
       -0.6840474 -0.07198846 -0.00035794816 -0.06751737
0000d0 66 25 19 b6 98 7b a4 b8 12 a3 3e bf b8 be 5d 3f
       -2.2820545e-06 -7.8431505e-05 -0.74467576 0.8661914
0000e0 62 d1 27 3e a7 33 c7 be e2 0a 02 bf c2 20 7c b8
       0.16388467 -0.38906595 -0.50797856 -6.011199e-05
0000f0 26 9e 3d bf a7 f0 3e 3f 40 ef 23 3f 4f 80 3c bf
       -0.7406944 0.74585956 0.6403694 -0.73633283
000100 35 1a ce be ea e4 bc 3d b6 f5 96 3e b2 fd 8b 38
       -0.4025437 0.092233494 0.29484338 6.675291e-05
000110 4a b9 84 3e 95 b8 2d bc 12 df be be 31 96 d8 be
       0.25922614 -0.01060309 -0.37279564 -0.42302087
000120 18 31 27 3f 33 de d0 3d 20 4e 8d 39 26 3d d0 3e
       0.65309286 0.10198631 0.00026951823 0.40671653
000130 37 70 43 bf fe ce 16 3f 72 b2 09 3f 1e a2 cc 39
       -0.763431 0.58909595 0.5378791 0.000390307
000140 a3 ee 0f bf 76 89 05 3b cc 33 f9 be f2 d8 27 3f
       -0.56223506 0.0020376123 -0.4867233 0.6556541
000150 56 c6 91 bd b9 80 cf 3e f9 c7 16 3e 90 28 3a 3e
       -0.07117908 0.40527895 0.14724721 0.18179536
000160 f2 86 5a 3e 88 d0 f4 be cb ff 00 b9 07 71 d7 be
       0.2134054 -0.47815347 -0.00012302322 -0.4207842
000170 b9 5f 31 3f 59 6a 36 3f 01 54 97 3e a0 03 89 be
       0.69286686 0.71256024 0.29556277 -0.26760578
000180 57 38 4a be 83 4f cb 3e 52 ce 25 3f 0b 63 0e 3c
       -0.19748054 0.397091 0.64767945 0.008690606
000190 59 11 24 3e bd a0 65 3f bf 0e 71 3e e1 ad 1d 3e
       0.16022243 0.8969839 0.23540781 0.15398361
0001a0 dd b9 6f 3e 79 ae 38 3e 11 bb 39 bf 3c 9c 0a 3e
       0.23410745 0.18035306 -0.72551066 0.13536161
0001b0 b4 84 2e 3f 9a 2e 35 3f 9a b2 46 3c 90 3e b4 3c
       0.6817124 0.70774233 0.012127543 0.022002488
0001c0 95 b1 d3 be f2 bf 48 3d 09 2e df be d4 73 3d 3e
       -0.41346422 0.04901118 -0.4358981 0.18501216
0001d0 32 48 65 3f 98 63 b2 bb ac ef 50 bf 3d 61 5e 3d
       0.89563286 -0.0054440014 -0.8161571 0.054291952
0001e0 ff 54 88 bb 83 48 58 39 fe b9 5a bf 13 1d 49 bf
       -0.004160523 0.00020626378 -0.8544005 -0.7855999
0001f0 33 ae a2 3d aa 15 9f 3e 6a 16 16 3e 55 47 94 3e
       0.07943382 0.31071216 0.14656988 0.28960672
000200 29 29 47 bd cb 91 10 3f c2 06 eb 3c ec cf 87 3d
       -0.048623238 0.5647246 0.028689746 0.06631455
000210 a1 fc 11 3f 02 b9 eb 3d de 8a 51 bf a3 56 58 3f
       0.57026106 0.11509897 -0.8185252 0.845072
000220 43 5d d0 be c5 31 ee 3e 79 6a 29 bf 48 f8 9d be
       -0.40696153 0.46522346 -0.6617809 -0.30853486
000230 99 ce 04 bf 4d f7 ee 3e c5 3f 64 bf 53 63 e7 be
       -0.51877743 0.4667305 -0.89159805 -0.45192966
000240 50 11 ca be 81 f0 f2 bd 15 3e 29 bf 4d 81 72 3e
       -0.39466333 -0.11862279 -0.66110355 0.23682137
000250 40 97 8e bc 2f 9d 3a 3c 1a 61 3a bf b5 77 7d bc
       -0.017406106 0.011390015 -0.72804415 -0.015470435
000260 e6 8d 2c bf fe ab 91 3b 07 28 8a 3e 8b 7d 34 bf
       -0.6740402 0.004445552 0.26983663 -0.70504063
000270 0b cc 3f 3f c7 b1 de 3e 93 13 09 3d 94 fb 17 bf
       0.7492072 0.43495008 0.033465933 -0.5936825
000280 ce 15 cc bd 41 d5 c5 3e ed ef ae bd ba 31 8f 3e
       -0.099650964 0.38639262 -0.08541856 0.27967626
000290 06 27 e8 be db 3c 34 bf 0a 2e 18 3f 8e fd c0 bd
       -0.45342273 -0.7040536 0.5944525 -0.09423362
0002a0 69 63 30 3f ab 1a 3f b9 a3 e1 70 3e e7 7b 96 3e
       0.6890169 -0.00018225114 0.23523574 0.29391405
0002b0 79 d1 3a 3f 0f 0a 67 be 44 ef be be 2e f4 b3 3d
       0.7297588 -0.22562431 -0.3729192 0.08786808
0002c0 7b c7 b9 bd 7c c1 2c 3f c5 d2 73 3d 3e 8e e6 be
       -0.09071251 0.67482734 0.059527177 -0.45030397
0002d0 d7 86 69 3e 7e 98 72 3e f2 8f 1d bf dd cf 0d be
       0.22805344 0.23690984 -0.6154777 -0.13848825
0002e0 7b 5c 2f 3f b0 91 36 3f e8 9c d7 be 40 9e 00 3f
       0.6850049 0.7131605 -0.42111897 0.5024147
0002f0 e9 48 88 be 52 38 56 bf 80 aa 60 3f cb bf bd 3d
       -0.26618126 -0.8367969 0.8776016 0.09265097
000300 bc c0 ac 3e fe cd d2 3e d1 b0 ef 3e c1 87 0b be
       0.33740795 0.41172785 0.46814588 -0.13626005
000310 a9 20 49 3f c5 a3 8b be 54 64 d6 3e 85 80 36 3f
       0.7856546 -0.27273384 0.4187342 0.71289855
000320 cc 07 59 3f ce 6c 62 bf 9d cd e8 3e 13 2b ea be
       0.8477752 -0.8844727 0.4546937 -0.45735988
000330 ae d3 56 b7 4c d3 b6 3e da f3 65 3e 5d 6c 57 3f
       -1.28046795e-05 0.35708082 0.22456303 0.84149724
000340 d4 fc 07 be 50 da 84 be bc 9b 29 3f 6d 7b cf b9
       -0.1328004 -0.2594781 0.66253257 -0.00039574076
000350 2e fc 94 3e ad c0 03 3f df 13 33 3f a5 a0 7e 3d
       0.29098648 0.51465875 0.69952196 0.06216492
000360 3c ee f1 bd 4a b6 47 3f 55 c3 83 be 9c bf df bd
       -0.11813018 0.78012526 -0.25734964 -0.109252185
000370 be f4 56 bf db 13 48 3a f9 0a 51 bf 6a 90 d7 be
       -0.83967197 0.0007632353 -0.8165737 -0.42102367
000380 d3 7e 36 bf cb 4d 9b be 79 80 51 3e 89 4b 3d bc
       -0.7128727 -0.3033279 0.20459165 -0.0115536535
000390 cb 0d 00 be b8 11 20 bf 91 fe d2 bd 20 8c cc 3e
       -0.12505262 -0.62527037 -0.10302461 0.39950657
0003a0 f5 28 fd be 59 f8 5d 3f 37 73 5a bc 11 2c 07 bf
       -0.4944531 0.86707073 -0.013333133 -0.52801615
0003b0 15 85 56 3e 8f 25 e1 3d 6c e0 d6 3c 0a 70 9d be
       0.20949204 0.10993492 0.02623006 -0.30749542
0003c0 e3 f8 24 3f 99 92 0d 3f 72 e0 04 3f ac b9 a8 be
       0.6444227 0.55301815 0.51904976 -0.32954156
0003d0 a1 5a b8 be a2 29 54 3f 6b 16 36 3f 33 e1 58 3f
       -0.36006644 0.82876027 0.7112796 0.84718627
0003e0 b5 d7 40 bf 55 66 67 3e ca 4d cf be 6b 23 d8 be
       -0.7532914 0.2259763 -0.40489036 -0.42214522
0003f0 72 8a 2a 3f cb 64 51 3e 30 36 51 bf b8 3a 25 3f
       0.666175 0.20448606 -0.8172331 0.6454272

state_embedding.item_embedding.embedding.weight f4 [1257, 4]
000000 b6 76 b2 be 61 ce fd be 5f 5d 5a 3e c9 9b 09 bf
       -0.34856194 -0.49571517 0.21324681 -0.53753334
000010 81 c2 46 bb c1 7f fe 3e 73 fd a9 be d4 8e 16 bf
       -0.0030328336 0.49706843 -0.3320118 -0.5881169
000020 78 14 98 be 8f ae 19 3e 44 1a 21 bf 47 82 27 3d
       -0.29703116 0.15007995 -0.62930703 0.040895727
000030 cb 60 14 3f e0 73 b6 3e ce 71 39 bd cf 85 2e 3f
       0.57960194 0.3563528 -0.04527455 0.68172926
000040 16 11 28 bd 31 5b 8a be d5 df 59 b9 3f 6f 88 3e
       -0.04103192 -0.270227 -0.00020778117 0.26647374
000050 60 a4 8e 3e 09 60 54 bf 27 9a d7 be 84 13 01 3f
       0.27859783 -0.8295904 -0.42109796 0.50420403
000060 8c e0 50 be e8 3d 29 3f 3a 6e 52 bf 4d 5f 4a 3f
       -0.20398158 0.66110086 -0.8219944 0.7905167
000070 4d 17 46 be 12 07 dd be f1 17 63 3f aa e0 24 3f
       -0.19344826 -0.43169457 0.88708407 0.6440531
000080 d8 3a 27 bf 6c 03 cd 3e ed 79 d6 3d e9 d5 1f bd
       -0.65324163 0.40041673 0.10472474 -0.03902236
000090 34 65 cb be 77 c2 8e b8 d4 c2 2a b8 f9 b2 52 3e
       -0.3972565 -6.8073095e-05 -4.0712606e-05 0.20576085
0000a0 00 5c 0e 3e cc 9d e7 be fe c7 26 3d 9c 18 37 bf
       0.13902283 -0.45237577 0.04071807 -0.71521926
0000b0 bc c9 f4 3d 1a aa 58 3f 94 f6 9a be ea 41 29 3f
       0.1195254 0.84634554 -0.3026625 0.661162
0000c0 2f db ec 3d e2 f2 82 3e 91 11 fd 3e 97 1a d4 3e
       0.115652435 0.2557593 0.49427465 0.41426536
0000d0 92 c8 23 3f 45 18 3f be d4 6a 13 3e e2 67 17 bf
       0.6397792 -0.18661602 0.1439622 -0.5914289
0000e0 68 60 5f 3e 41 70 57 bf 90 3e 1a 3f c6 27 ea 3e
       0.2181412 -0.8415566 0.6025171 0.4573347
0000f0 56 ec 9e be 68 e7 50 3f ff d2 84 3d 41 91 e4 be
       -0.31039685 0.816031 0.06485557 -0.4464207
000100 be 88 38 3f bc 40 68 3e 76 59 2b bf a4 e7 08 3f
       0.7208365 0.22680944 -0.6693338 0.53478456
000110 4a 00 91 b8 5c ce b7 3e 51 8a 80 bd bb ff 3a 3d
       -6.9141926e-05 0.35899627 -0.06276382 0.04565404
000120 fc 68 a4 39 2a 8a 55 3e 64 f7 25 be 5c c5 17 3f
       0.00031358737 0.20853487 -0.16207653 0.5928552
000130 f3 2e 12 bf 77 c1 02 3e c8 a4 0a 3e 58 92 2f 3f
       -0.5710289 0.12769113 0.13539422 0.6858268
000140 80 6d 3b 3f 11 09 b2 3e e2 f8 32 bf f7 c0 0f 3f
       0.7321396 0.34772542 -0.69911015 0.56153816
000150 80 cb 24 3f 50 0e 39 bf 64 e5 08 be 80 a6 29 bf
       0.64373016 -0.72287464 -0.13368756 -0.66269684
000160 1c 05 38 3f 39 b2 2e 3f d0 22 44 b5 58 7c 6a 3e
       0.71882796 0.68240696 -7.306635e-07 0.22898996
000170 39 27 0e 3e 79 75 a6 3d cd 2c 1b 3f 16 c8 9c 3e
       0.1388215 0.08127875 0.60615236 0.30621403
000180 8a bf 4a 3f 72 a3 a4 3e 20 00 8a b7 73 54 c3 3d
       0.79198515 0.3215595 -1.645094e-05 0.09537592
000190 74 28 75 b8 90 4b d9 3e 09 c2 cf 3d 1b b7 84 bc
       -5.8450227e-05 0.42440462 0.10144431 -0.016200593
0001a0 72 1c 0b 3f b6 7b 4f bf d5 6f 2a 3e 6d 20 2a 3e
       0.5434028 -0.8104814 0.16644223 0.16613932
0001b0 4e e5 59 39 87 88 e3 3e 0c c6 0b 38 be e2 a4 3d
       0.00020780155 0.444401 3.3324628e-05 0.0805106
0001c0 11 0e 0a bf 1b c4 1d 3f 3b 46 11 3f 51 2a 07 3f
       -0.53927714 0.6162736 0.5674779 0.52798945
0001d0 d5 a7 1f 3e 05 1d 62 3f d2 fb 2a 3f e3 dd 86 3e
       0.15591367 0.8832553 0.667905 0.2634116
0001e0 9c 2d 15 3f 1c 70 da 3d 12 86 ea bd 3d e7 01 bf
       0.5827272 0.106659144 -0.11451353 -0.50743467
0001f0 90 fd 28 be 69 51 23 bf ef cf a3 bd 36 55 66 bf
       -0.16502976 -0.637961 -0.079986446 -0.8997377
000200 9f 77 48 be f8 ea 3c 3f a5 d0 ba be 88 c1 16 3e
       -0.19576882 0.73796034 -0.36487308 0.14722264
000210 4d 69 71 3e 8a f4 9a bd 20 2f 09 bf 6a e9 cd be
       0.23575325 -0.075661734 -0.5358753 -0.40217143
000220 fe 87 1f 3f c9 f9 ae 3e 7c 68 45 bf 6a fe ee 3d
       0.6231688 0.34174946 -0.77112556 0.116696194
000230 05 6e 43 bf af ec 48 bf 36 01 80 3e 67 f2 20 b9
       -0.7633975 -0.7848615 0.25000924 -0.00015349091
000240 aa 33 51 bd 75 20 c3 be dc a8 1f be 5b 7c 59 bf
       -0.05107466 -0.381107 -0.15591758 -0.84955376
000250 1c 01 17 3f 05 3d f3 be ea dd 53 3e 69 50 cc 3d
       0.5898607 -0.47507492 0.20690122 0.099762745
000260 ee 53 57 3f 5f 8b 1f bf 00 f2 59 be 50 e6 4f bf
       0.8411244 -0.6232204 -0.21283722 -0.81210804
000270 04 8c 36 be 0d 7b 8d b8 95 53 f2 3e d6 8d 4b 3f
       -0.17826849 -6.746324e-05 0.47329393 0.795133
000280 62 1a c8 bd d7 82 2c bd 9e cb d3 be dc c3 a8 3b
       -0.09770657 -0.042116966 -0.41366285 0.0051503014
000290 f5 81 dd b7 32 27 3d bf ab 3a 60 bf f5 c7 94 bc
       -2.6405769e-05 -0.7388793 -0.8758952 -0.018161753
0002a0 5d 2e 15 3f 4a 6d 3b 3f a0 d6 4e 3e bc c2 ed be
       0.5827387 0.73213637 0.2019906 -0.46437633
0002b0 95 aa af 3a 44 f9 78 3e 25 36 34 3f da 74 b3 be
       0.0013402278 0.24313837 0.7039512 -0.35050088
0002c0 c4 ed 15 bf 60 d2 a2 be 3e f2 21 bf 4a 54 a4 be
       -0.58565927 -0.31801128 -0.6326026 -0.32095557
0002d0 35 bd ff 3d 38 1b 2a bf d0 17 4c be 8c 95 ba 3e
       0.1248726 -0.6644778 -0.19930959 0.3644222
0002e0 37 63 e8 3e a1 eb 3f 3f 2c 7c 4b 3f d3 48 f4 be
       0.45388195 0.74968916 0.79486346 -0.4771181
0002f0 03 79 63 bf 71 eb cc 3e 45 c0 25 bf f2 a9 4e 3f
       -0.88856524 0.40023378 -0.64746505 0.80728066
000300 ba dc b2 3e a2 30 57 3f 31 ac 25 bd e4 d7 4a 3e
       0.34934026 0.8405858 -0.040447418 0.19808918
000310 85 c4 b1 be 0e 92 8a be 5a 09 bc 3e bd 2e fd 3e
       -0.34720245 -0.27064556 0.36725885 0.4944972
000320 c2 22 65 38 98 17 3c 3d ac 32 a2 bb 23 c2 d8 3e
       5.4630225e-05 0.04592094 -0.004949888 0.42335615
000330 2f 8e 46 b7 b4 56 8b 3b 0f 14 13 bf 2e 6a 82 3d
       -1.1834824e-05 0.004252279 -0.5745248 0.063679084
000340 dd b5 63 3f 3b 63 30 bf 8c 0a e0 3d 38 d2 ec 3e
       0.88949376 -0.68901414 0.10939512 0.46254134
000350 24 68 c0 bc b6 e8 55 bf 30 a7 56 bf 97 0d 8d 3e
       -0.023487158 -0.83558214 -0.8384886 0.2754943
000360 ce df f2 be 3e af 32 3f f2 ea 26 bf f6 69 1e 3f
       -0.47436374 0.6979865 -0.6520225 0.61880434
000370 2b 93 d0 be 54 d9 72 be 09 a6 ce be 81 96 66 bf
       -0.4073728 -0.23715717 -0.4036105 -0.900734
000380 4c 06 4a 3f 36 89 d6 bc 0d eb 30 bf 5e 5c f5 3e
       0.7891586 -0.026188474 -0.6910866 0.47922033
000390 d1 98 3f 3f f6 07 1a 3e ed 47 1c bd 7a f1 76 be
       0.74842554 0.150421 -0.03815453 -0.24115553
0003a0 8d 16 77 3e e5 47 2c bf a9 90 21 3e 07 36 15 3d
       0.24129696 -0.672972 0.1577784 0.036428478
0003b0 59 3d 9f bd a0 be bd 3e 6c 96 d9 be cd cd 36 3f
       -0.07775373 0.37059498 -0.42497575 0.7140778
0003c0 a5 24 4f 3e bd 8d 35 bf ce 7d f0 be 6c 0a 60 3f
       0.20228823 -0.709194 -0.4697098 0.875159
0003d0 56 92 f4 3b 5d a3 d9 be db 54 93 3e 63 48 4a 3f
       0.0074637337 -0.4250745 0.28775677 0.79016703
0003e0 6a 52 1f 3c b8 fd 3d bf ac a6 b4 3e 4c 00 38 3f
       0.009724239 -0.7421527 0.3528341 0.71875453
0003f0 25 85 00 3f 3d 2b 63 3f 78 49 b7 3e 4e 1f c1 3e
       0.5020316 0.8873785 0.3579824 0.37719196

state_embedding.condition_embedding.embedding.weight f4 [8, 4]
000000 e2 0d 14 3f 1a 78 ab 38 8d b1 59 bc 68 03 47 be
       0.57833683 8.176286e-05 -0.01328696 -0.19434893
000010 89 7f de 3e af db ec be 77 5f 0f 3f 7f b2 d6 3d
       0.43456677 -0.46261355 0.5600504 0.10483264
000020 de fe 6c 3d b7 77 7b 3e ad 6b 59 be 3b e1 c4 3e
       0.057860248 0.24557386 -0.21232481 0.38453087
000030 9d cd 9c 3b 37 f7 7d 3e 45 55 03 bf da 95 1d bf
       0.004785253 0.24801336 -0.51301986 -0.6155678
000040 11 fd 6e be 47 fa bb b9 ae 74 cf 3d aa 2d d5 3c
       -0.23338725 -0.0003585389 0.10129677 0.02602275
000050 80 6b 18 3f 86 e6 7e 3d 6e dd 8b be 58 9c bb 3d
       0.5953903 0.062231563 -0.27317375 0.091606796
000060 0f 60 0f bf 0f 96 09 b9 c3 15 08 3f 7d bc a5 be
       -0.5600595 -0.0001312124 0.53158206 -0.32370368
000070 06 17 a5 bd 5d 0f bc 3e 89 b5 ca 3e ab 84 21 3f
       -0.08061032 0.3673047 0.39591625 0.6309306

state_embedding.weather_embedding.embedding.weight f4 [9, 4]
000000 56 7b e3 be fc 30 39 bf 3c a5 be be 2a ea 3e 39
       -0.44430035 -0.7234037 -0.3723544 0.00018207045
000010 aa 30 fa bd bf 28 40 3d d6 4f 2a bf 92 9e 31 bf
       -0.12216313 0.04691386 -0.6652807 -0.69382584
000020 dd 73 1a 3f 10 b3 99 3e 3e 80 c2 bd 81 51 0b 3f
       0.60333043 0.30019426 -0.094971165 0.5442124
000030 41 95 39 3f d6 ff f8 bc 4c 8b c5 be 66 c9 32 3e
       0.7249337 -0.03039543 -0.38582838 0.1745964
000040 30 28 5d be 26 b9 89 3d cb 9d be be 4d f4 43 bf
       -0.21597362 0.067247674 -0.3722976 -0.7654465
000050 c8 93 39 bf dc 57 30 bf db 7d 60 bd 0f bb aa 3c
       -0.7249112 -0.6888406 -0.054807525 0.02084115
000060 2a 04 28 3f 06 72 62 be 79 c1 0b bf ef a2 5d bd
       0.65631354 -0.22113809 -0.5459209 -0.054110464
000070 28 fd 48 bf 12 62 1c 3f 10 50 25 3f 41 eb 4b bf
       -0.78511286 0.61087143 0.6457529 -0.79655844
000080 df 42 51 bf 2d 82 61 bf 19 9c 02 3f 61 c2 3c bf
       -0.8174266 -0.8808926 0.51019436 -0.737341

state_embedding.alive_embedding.embedding.weight f4 [2, 4]
000000 43 5a 95 be 2d 70 76 3e 8b 37 0a bf 2c c6 dd be
       -0.29170427 0.24066229 -0.53991 -0.43315256
000010 59 64 dd be 94 81 49 be 96 f5 2c 3f 37 a0 6c 3e
       -0.43240622 -0.19678336 0.67562234 0.23107992

state_embedding.disabled_embedding.embedding.weight f4 [2, 4]
000000 d3 de 87 bc c9 ad 78 be ca ab c2 3e 54 31 f4 3d
       -0.016585743 -0.24285044 0.3802169 0.11923471
000010 96 05 8f be a4 d2 5a be 2a be d7 be a0 25 1c 3f
       -0.2793395 -0.21369416 -0.4213727 0.6099491

state_embedding.spikes_embedding.embedding.weight f4 [4, 4]
000000 4f 27 16 3f 06 70 f9 3e 37 39 cd 3e f5 b8 63 be
       0.5865373 0.4871828 0.40082714 -0.22238524
000010 11 4c 15 3f 8b dd 1f b7 9d 9f 1e 3f a7 70 26 be
       0.58319193 -9.5287205e-06 0.619623 -0.16253911
000020 78 2d 3f 3f 3a 67 45 bf 86 e2 45 3f ef c6 be be
       0.74678755 -0.77110636 0.7729877 -0.3726115
000030 08 7a 1a 3f 44 38 de 3e ce f4 26 bd 5f 70 2a bf
       0.60342455 0.43402302 -0.040760808 -0.66577715

state_embedding.spikesopp_embedding.embedding.weight f4 [4, 4]
000000 a2 42 eb be 38 2d 16 bf 25 b7 eb 3e cc 77 cd 3e
       -0.45949274 -0.5866275 0.46038166 0.4013046
000010 6b 59 15 be a6 1b 3c bf 86 38 67 3d d9 83 38 3f
       -0.14584891 -0.7347969 0.05645039 0.72076184
000020 f9 2a 67 be bc d3 23 bf e1 6e 8e be cc 7b 32 bf
       -0.22574987 -0.63994956 -0.2781897 -0.6972015
000030 b5 96 14 be 42 c2 a3 3e 80 e1 16 bf 10 17 71 3e
       -0.14510615 0.31984144 -0.58937836 0.23543954

state_embedding.toxicspikes_embedding.embedding.weight f4 [3, 4]
000000 6f 6c 56 bf e5 8e 99 be f7 b2 a4 be 87 e1 37 be
       -0.83759207 -0.29991832 -0.3216779 -0.17957126
000010 e4 22 41 bf 5f f1 24 bc 6b 17 21 bf 1b e7 15 3f
       -0.75443864 -0.010067313 -0.6292636 0.58555764
000020 c3 7f b4 3e a0 07 f9 bc ef 29 bf b7 43 c6 d5 be
       0.35253724 -0.030399144 -2.2788501e-05 -0.41752824

state_embedding.toxicspikesopp_embedding.embedding.weight f4 [3, 4]
000000 2f 28 4d bf 9c bc ca 3e b3 45 98 3e 5a 5a 37 3e
       -0.8013944 0.39597023 0.29740676 0.1790556
000010 89 11 29 3f 4d 35 ed be 0b cd 8c 3e a8 22 ab be
       0.6604238 -0.46329728 0.27500185 -0.33424878
000020 60 e6 30 bf a0 2e 85 3e 6e d5 ed be 43 85 16 ba
       -0.69101524 0.26012135 -0.46451896 -0.00057419034

state_embedding.fieldeffect_embeddings.0.embedding.weight f4 [2, 4]
000000 0d fe cb be 63 ea 69 be 2a eb d8 3d 4f 61 57 3f
       -0.39842263 -0.22843318 0.10591729 0.84132856
000010 81 b9 2c 3e 6a c7 0e 37 44 7f 13 bf 7e 8f 4f bf
       0.16867639 8.510289e-06 -0.57616067 -0.81078327

state_embedding.fieldeffect_embeddings.1.embedding.weight f4 [2, 4]
000000 ee 3b 24 3e 69 52 32 bf 86 b6 11 bf cf dc a5 3e
       0.16038486 -0.69657 -0.56919134 0.32395026
000010 2b 58 4d bf 41 1b c3 3d ab d2 72 3d a6 04 28 bf
       -0.8021266 0.09526683 0.05928294 -0.6563209

state_embedding.fieldeffect_embeddings.2.embedding.weight f4 [2, 4]
000000 89 84 24 3f 07 24 3b be d1 8e 13 3e 29 66 04 be
       0.6426473 -0.18275462 0.14409949 -0.12929596
000010 58 8e e7 be 7f 10 4a bd 11 bf 46 be 6c 53 09 3f
       -0.45225787 -0.04933214 -0.19408824 0.53642917

state_embedding.fieldeffect_embeddings.3.embedding.weight f4 [2, 4]
000000 3b da b0 3e 6e b2 97 3e 43 3a c8 bd 09 fd cc be
       0.34541497 0.2962832 -0.097767375 -0.400368
000010 b1 08 70 be cb 78 2b 3f e7 73 c0 be 66 03 2f 3c
       -0.23440816 0.6698119 -0.37588426 0.010681963

state_embedding.fieldeffect_embeddings.4.embedding.weight f4 [2, 4]
000000 1f bb fb 3e f7 59 db be 05 a6 ae 3e 04 eb 1d bf
       0.491662 -0.42842075 0.34111038 -0.6168673
000010 ac 88 26 3f 4c af d8 3e 61 fb 65 bf fe 65 48 bf
       0.65052295 0.4232124 -0.898367 -0.7828063

state_embedding.fieldeffect_embeddings.5.embedding.weight f4 [2, 4]
000000 45 39 c4 3e c2 95 31 3f 27 65 41 be 92 e3 7c 3e
       0.38324943 0.6936914 -0.18886243 0.24696186
000010 4a 89 eb 3d 29 d6 11 3f 0b e8 9a 3d cf f7 54 bf
       0.11500795 0.5696741 0.0756379 -0.83190626

state_embedding.fieldeffect_embeddings.6.embedding.weight f4 [2, 4]
000000 0f 92 01 bf 38 28 ec 3c 09 6c d0 bd aa d4 4f bf
       -0.5061349 0.028827772 -0.10176856 -0.81183875
000010 f4 d0 e9 3e 7f 1b 87 be a7 70 92 3e e1 33 22 bf
       0.4566723 -0.26388165 0.28601572 -0.6336041

state_embedding.fieldeffect_embeddings.7.embedding.weight f4 [2, 4]
000000 81 98 8c be 52 8f ab bd da 1e 6e 3d 46 b5 cf 3e
       -0.274601 -0.083769456 0.05813489 0.40567988
000010 11 8a 12 3f 23 34 30 be 6c 4a 09 bf dd 83 22 3f
       0.5724192 -0.17207389 -0.53629184 0.6348246

state_embedding.fieldeffect_embeddings.8.embedding.weight f4 [2, 4]
000000 c9 53 da bd d9 37 9d be 8c 41 27 bf cc 5a 10 3f
       -0.10660512 -0.3070667 -0.6533439 0.56388545
000010 d1 ea 5a 3c 99 c7 69 bc ae d4 03 3f 06 75 12 3e
       0.013361649 -0.014268779 0.514964 0.14302453

state_embedding.fieldeffect_embeddings.9.embedding.weight f4 [2, 4]
000000 37 59 22 3f cc 70 b1 be 67 71 10 3f e3 8b 69 3e
       0.6341738 -0.3465637 0.5642304 0.22807269
000010 82 45 01 bf 00 5c 4b b9 49 f3 60 3f 53 86 fd be
       -0.50496686 -0.00019393861 0.87871224 -0.49516544

state_embedding.fieldeffect_embeddings.10.embedding.weight f4 [2, 4]
000000 b5 e1 99 be b7 da 0e bf 72 ba 13 3f a2 cb d2 be
       -0.30055013 -0.5580248 0.5770637 -0.41170985
000010 af 2c ae ba b3 89 39 3d 2c 81 1b bf 55 08 3c bf
       -0.0013288463 0.045297336 -0.60743976 -0.73450214

state_embedding.fieldeffect_embeddings.11.embedding.weight f4 [2, 4]
000000 27 d9 44 be 52 c5 26 bf c5 24 0f bf 7b 05 95 be
       -0.19223462 -0.65144837 -0.5591548 -0.29105744
000010 a5 2d 49 bf a1 fe 9c 3c 62 19 22 bf 1d 53 c5 3e
       -0.78585273 0.019164385 -0.6331998 0.38539973

state_embedding.fieldeffect_embeddings.12.embedding.weight f4 [2, 4]
000000 0b 4b f4 3e bb 0d 99 be 17 eb 82 3e 90 81 f3 be
       0.47713503 -0.29893288 0.25569984 -0.47559786
000010 32 03 c0 be 73 4a c9 be fe 5c 18 3f 03 78 06 bf
       -0.37502438 -0.39314613 0.59516895 -0.52526873

state_embedding.fieldeffect_embeddings.13.embedding.weight f4 [2, 4]
000000 73 67 29 bc 2e dd 20 3f 0c bb b7 be 55 2f 13 bf
       -0.010339606 0.62837493 -0.35884893 -0.574941
000010 f8 ce 50 3f dc 72 45 bf 05 4f 90 be c2 73 04 3e
       0.8156581 -0.77128386 -0.28185287 0.12934783

state_embedding.fieldeffect_embeddings.14.embedding.weight f4 [2, 4]
000000 23 f3 24 3f 57 0a 08 3d 50 79 14 3f 35 a3 d5 be
       0.644335 0.033212986 0.5799761 -0.4172608
000010 41 35 25 bf 84 ab 1f 3f 04 af 51 3e 2f 88 81 be
       -0.64534384 0.6237109 0.2047692 -0.25299212

state_embedding.fieldeffect_embeddings.15.embedding.weight f4 [2, 4]
000000 17 11 c1 3d 82 12 f9 bd 50 49 35 3f bc 97 0f be
       0.09427088 -0.12161733 0.7081499 -0.14022726
000010 a9 2f e7 be a1 ef f0 bd 19 cd cc be 2a 33 d6 3e
       -0.4515355 -0.117644556 -0.40000227 0.4183591

state_embedding.fieldeffect_embeddings.16.embedding.weight f4 [2, 4]
000000 2d 07 db be 4b a3 13 bf 6e 10 a5 3e 4d c1 fc 3e
       -0.42778912 -0.5767104 0.32239097 0.49366227
000010 75 a3 c9 ba 88 79 25 3f 3f df 08 3f 92 91 54 be
       -0.0015383797 0.64638567 0.53465647 -0.20758656

state_embedding.fieldeffect_embeddings.17.embedding.weight f4 [2, 4]
000000 8f ca 07 3f 5f 8f 30 3e 78 a1 cd be b1 cc 2a bf
       0.53043455 0.17242192 -0.40162253 -0.66718584
000010 30 21 09 3f d5 a5 95 be a8 8f 44 bf e9 66 29 3f
       0.53566265 -0.29228082 -0.767817 0.66172653

state_embedding.fieldeffect_embeddings.18.embedding.weight f4 [2, 4]
000000 89 3b 41 bf 2c 98 92 be 81 60 d2 3e 33 e2 9f 3e
       -0.7548147 -0.28631723 0.41089252 0.31227264
000010 01 07 ce 3e 1b c2 1f 3f 19 6e 42 bc 80 b2 e2 3e
       0.4023972 0.62405556 -0.01186707 0.4427681

state_embedding.fieldeffect_embeddings.19.embedding.weight f4 [2, 4]
000000 d4 00 ee bd fe f9 22 be 55 46 1b be 1f ba ec 3e
       -0.11621252 -0.15915677 -0.15163548 0.4623575
000010 29 f5 34 bf e6 ae 4f 3e 3b 3d 1d bf bd ae 34 3f
       -0.70686585 0.20281562 -0.61421555 0.7057913

state_embedding.fieldeffect_embeddings.20.embedding.weight f4 [2, 4]
000000 53 37 fc 3e 3c ec 4e bf c9 64 bf 3c cf 1b 25 3e
       0.4926096 -0.80829215 0.023363488 0.1612389
000010 63 38 07 3f d7 54 71 be e1 f3 1e bf 6d db 0d 3f
       0.52820414 -0.2356752 -0.6209088 0.5541294

state_embedding.fieldeffect_embeddings.21.embedding.weight f4 [2, 4]
000000 e8 fa 0e bf af 31 48 3f 65 88 c0 bd 3f a0 2a 3c
       -0.558516 0.7820081 -0.09401015 0.010414182
000010 b1 f8 ce 3e b6 45 f4 3b e6 de ee be b7 6a b4 3e
       0.4042411 0.0074545993 -0.46654433 0.35237667

state_embedding.fieldeffect_embeddings.22.embedding.weight f4 [2, 4]
000000 06 b3 d2 be 20 6f a2 be b9 e6 3b 3f e0 a1 b5 be
       -0.4115221 -0.31725407 0.7339893 -0.35475063
000010 9a a4 14 bf c9 ff b5 3e 9b 0f f7 be 75 9e 08 3e
       -0.5806366 0.3554671 -0.48254094 0.13341697

player.active_pokemon.move_embed.move.w_1.weight f4 [8, 8]
000000 e7 33 e1 bd ab 63 46 be cb 63 a7 bd e0 cd d6 3d
       -0.10996228 -0.19373958 -0.08173331 0.10488486
000010 74 7b 0a be 4c 39 33 3c 40 53 44 3c 72 34 ef 39
       -0.13523656 0.010938954 0.011982739 0.00045624707
000020 6f 0a ac 3c 20 c8 82 3d 3b bb 01 39 9d b7 46 bb
       0.021001069 0.06385827 0.00012372147 -0.0030321844
000030 88 70 1a 3e e4 25 20 3d ca ca b5 b9 01 80 ef 3c
       0.1508199 0.039098635 -0.000346741 0.029235842
000040 34 61 9c bd 9b 52 d4 bb ad 4a 7f 3e e0 06 f7 bc
       -0.076357275 -0.006479574 0.2493083 -0.030154645
000050 81 7b 1c 3e ea ca 6d 3e 42 54 09 bd 50 91 17 b9
       0.15281488 0.23221937 -0.03352762 -0.00014454615
000060 78 ea 70 3d 5a c9 fb 39 9c fd 32 37 95 bb c2 3d
       0.058817357 0.0004802447 1.0668675e-05 0.09508435
000070 62 0f e7 3d 9f 79 3c be e7 ad 9f 3d 0b f3 e3 bc
       0.11282231 -0.1840577 0.07796841 -0.027825853
000080 e2 bb 36 be 5b 61 91 3c 86 5d 1e 3e da 49 54 38
       -0.17845109 0.017746618 0.15465364 5.061352e-05
000090 9d b1 51 39 de 3d fd 3d 7e 0f 06 3e 88 ae 0e bc
       0.0001999796 0.12365316 0.13091847 -0.008708604
0000a0 9f ce cf 3a 1a 91 49 ba e4 62 d4 b5 9d 78 79 be
       0.0015854425 -0.00076891633 -1.5824012e-06 -0.24362417
0000b0 ba 96 20 be 41 91 8b 38 7b 37 4e 3e 19 85 03 38
       -0.15682498 6.655092e-05 0.20138352 3.135679e-05
0000c0 f0 de 25 3e 77 6c 23 bd 38 32 7b 3e 0a 8f eb 3d
       0.16198325 -0.039898362 0.24530876 0.11501892
0000d0 2f ea 01 be 80 9d be 38 4a b1 11 3e f6 fc 49 3e
       -0.1268699 9.089243e-05 0.14227787 0.19725403
0000e0 e6 c2 6d 3e 32 1b 67 3e ec 36 0f 39 b7 7d 7a 3e
       0.23218879 0.22568968 0.00013658003 0.24462019
0000f0 a8 7f 82 bd ac 2f 66 be f3 6c 12 3e a3 39 03 39
       -0.06372005 -0.22479123 0.14299373 0.00012514605

player.active_pokemon.move_embed.move.w_1.bias f4 [8]
000000 2a 85 8f b6 40 63 2d bd cc 80 42 be df 9e 7d be
       -4.2772344e-06 -0.04233098 -0.18994445 -0.24767636
000010 6e 94 12 39 53 58 73 be 63 25 ce 3d 26 eb d7 3d
       0.0001397894 -0.23764162 0.10065725 0.10542898
